output/lstm_tcn_forecaster_b7_m1.pth (torch, 719547 bytes, 38 tensors)

lstm.weight_ih_l0 f4 [256, 60]
000000 b4 8c b2 bd bf 44 ca bd 4d 34 ba bd d2 a7 9a bd
       -0.08718243 -0.098763935 -0.09092007 -0.075515404
000010 38 46 9c bd ce 82 08 3e 85 f5 b8 3c e0 8b 2c 3d
       -0.07630581 0.13331148 0.02257801 0.042125583
000020 99 0b 02 be d5 dc ad bd ce de 83 3d 5f fe 8e 3c
       -0.12699737 -0.08489386 0.06438981 0.017455278
000030 c1 00 ec bb 08 e2 82 3d d5 e0 8e 3d 3a 8c b1 bd
       -0.0072022383 0.06390768 0.06976477 -0.08669324
000040 7b bc fd 3d ab 40 b0 3d 46 70 12 3d ad bc 90 3d
       0.123894654 0.086060844 0.035751604 0.07067237
000050 bc 56 6a 3c 5e 3b 7a 3d 5b 31 c3 3c 62 3c d9 3c
       0.014302906 0.061091773 0.023827245 0.02651805
000060 01 a0 c9 bd 96 98 45 3c 48 ab 4b 3c 12 ca b5 bc
       -0.098449714 0.012060305 0.012430973 -0.022191081
000070 05 b4 05 3e 56 bf d2 3d 09 fe 1a bd 36 a0 04 be
       0.13056953 0.10290401 -0.037839923 -0.1295174
000080 ce a5 08 3e 32 df 3b bd 43 c0 01 be ea 5f 66 3d
       0.133445 -0.045867153 -0.12670998 0.056243815
000090 12 df 6e bd 7c f1 b0 bd aa 5a 8b 3d 68 8e e2 bd
       -0.058318205 -0.086398095 0.06804402 -0.11062318
0000a0 44 a3 57 3d 67 8a 2f bd 37 02 49 bd 54 94 7b bd
       0.052645937 -0.0428566 -0.049074378 -0.061420754
0000b0 6a 09 00 3e dc 85 be 3d c7 81 83 3d 3f ad 39 3d
       0.12503591 0.093028754 0.064212374 0.045331236
0000c0 86 c0 6c 3d 11 3c b6 bd be 1d 74 3b e3 3e 8e 3b
       0.057800792 -0.088981755 0.0037249173 0.004340993
0000d0 c2 0b 88 3d c7 9a a4 bd 1f 3f f1 bd 3f 30 ff bd
       0.066428676 -0.08037334 -0.117796175 -0.12460374
0000e0 7b d4 37 3b ae 37 4e bd 55 91 04 be 26 10 a8 bb
       0.0028050232 -0.05034607 -0.12946065 -0.005128878
0000f0 62 34 14 3c 8b aa 48 bd f9 df dd 3d ed 9b c3 3d
       0.009045692 -0.048990767 0.10833735 0.09551225
000100 7e 06 15 3e 08 df d3 3d 47 a4 4b bd cf 66 14 3e
       0.14553258 0.10345274 -0.049717214 0.14492343
000110 78 9f 53 bc e3 ae 25 ba 70 e3 2a 3d 8e bf 5a 3c
       -0.012916438 -0.00063203106 0.041720808 0.013351334
000120 d7 ad 1a 3d 26 9e 39 3e f2 99 40 3c 35 fe 94 3d
       0.037763443 0.18126735 0.011755453 0.07275049
000130 da 80 cc 38 8a 6e 8e 3c e3 ae cc 3c 5f 7a ba 3d
       9.7514785e-05 0.017386694 0.024985736 0.09105372
000140 34 32 31 3d ee f2 f3 3d b2 09 28 bd 15 a3 4c bd
       0.043260768 0.119115695 -0.04102487 -0.049960215
000150 57 44 76 ba b3 e2 e4 3d 2e dd 92 3d 29 16 d3 3c
       -0.00093943387 0.11176052 0.07171093 0.025767403
000160 6e 81 9c 3c bd 33 ba 3d f6 f8 48 bd 85 ea 04 bd
       0.019104686 0.090918995 -0.049065553 -0.032450218
000170 f8 63 98 3a a7 e5 14 3e 92 69 25 3e 0e 65 93 bc
       0.0011626473 0.1454073 0.16153553 -0.017992523
000180 12 9e c5 bc e9 a9 08 bd 08 23 20 3e 05 94 20 3e
       -0.024123225 -0.033365164 0.15638363 0.15681465
000190 ce 23 46 bd 1f f3 65 3e e9 e7 98 3d 97 83 24 3d
       -0.04837399 0.22456025 0.07466108 0.040164556
0001a0 d4 4d cb 3d 61 9f a4 bc ad a4 fa bc 73 50 6e 3d
       0.09926954 -0.020095529 -0.030596102 0.05818219
0001b0 21 0b 0c 3e 8d 2a 29 3e 6e fe 99 bc 42 24 2e 3d
       0.1367612 0.16520138 -0.01879808 0.042515047
0001c0 5e 34 93 bd 63 e9 2f bd 5c 98 8a 3d 98 11 e4 bc
       -0.071877226 -0.042947184 0.067673415 -0.02784042
0001d0 58 63 90 3c 80 ff a8 bc 52 8c 58 bd 95 87 05 3e
       0.017625496 -0.020629644 -0.052868195 0.13040002
0001e0 2f aa c4 3c 1b 6e b1 3c e3 ce 11 3e ea 2f a5 bc
       0.024006931 0.021658948 0.14239077 -0.020164449
0001f0 e2 c3 8d 3c 31 67 d8 bd 1b 6c e7 bb f6 88 3e 3d
       0.017305318 -0.10566557 -0.0070624477 0.046517335
000200 bf f4 2c 3d 31 0b f7 bb 2a 40 d8 bd b2 f0 bd 3c
       0.042225596 -0.007539176 -0.10559113 0.023186062
000210 d4 9a 4c bd 35 2e e8 3d c5 0d 12 3e d8 38 5f 3d
       -0.049952343 0.11336938 0.14263065 0.05449757
000220 ab 99 51 3d 5c ea 8b 3d 0e 60 a5 bd 10 de 8d bd
       0.05117194 0.0683181 -0.080749616 -0.06927121
000230 7b 5d 06 3d f0 77 f0 3d e3 94 6c bd c7 78 a8 bd
       0.032803994 0.11741626 -0.057759177 -0.082261615
000240 61 08 14 3d a5 b8 10 bd 7d e1 9a 3c ef ee 17 bd
       0.036140803 -0.03533234 0.01890635 -0.0370931
000250 c1 4a 23 3c 8f 66 05 3e b4 4a 8a bc d1 7f 83 bd
       0.009966553 0.13027404 -0.016881324 -0.064208634
000260 36 86 06 3d 05 4c c1 bd 0f b4 b1 3c 87 d9 0b 3e
       0.032842837 -0.09438328 0.021692304 0.13657199
000270 c5 a1 1f bd 8a a8 49 3d d9 8e df 3d d6 7b 9f bd
       -0.038972635 0.049232997 0.10915918 -0.07787292
000280 3e 83 1d 3e f2 3f 1e 3e 8a 25 02 3d d4 a7 1b bb
       0.15382096 0.1545408 0.03177408 -0.0023751156
000290 31 ec 2c bc 06 35 87 bb 34 0b 7f 3d 2d b8 93 bd
       -0.010554359 -0.004126194 0.062266544 -0.07212863
0002a0 18 37 e2 3d 3f c1 69 bc a3 1b cd 3d 35 1a 90 ba
       0.110456645 -0.014267265 0.10015037 -0.0010994138
0002b0 c7 e3 8a bd 44 38 1e 3e d4 76 a5 3d c2 87 8d bc
       -0.06781726 0.15451151 0.08079305 -0.017276648
0002c0 f5 c0 e2 3c ca 03 11 3e 80 f5 16 3c 45 cf ca 3b
       0.0276799 0.14161602 0.009213805 0.0061892592
0002d0 7c 2c 81 bd 43 b7 91 3d 20 e9 b8 bd 10 77 38 3d
       -0.06307313 0.071150325 -0.0902884 0.04503542
0002e0 12 26 95 3c 90 80 0e be e9 28 d5 3c 16 3c 0f 3e
       0.01820663 -0.1391623 0.026020484 0.13987765
0002f0 53 a7 41 3d 44 4e 1f bd d8 dd 7b 3d 6a 74 09 3e
       0.047278713 -0.038893 0.061490864 0.13423315
000300 34 bf 80 3d 8e 69 a1 bd d1 2f cc 3d 79 36 34 bd
       0.06286469 -0.07881461 0.09970058 -0.04399726
000310 47 8d 9d bd 33 27 fb 3d d8 02 b0 3d ed 75 15 3e
       -0.07692962 0.12263336 0.085942924 0.14595766
000320 8c 81 b8 3d 39 0d f9 3c 74 f4 4e 3d 9d 15 8f 3d
       0.09009084 0.030401813 0.050526097 0.06986544
000330 6c d9 15 3d c4 1a 3a bd 1b d6 05 3e 6b 2e 09 bc
       0.036584303 -0.045435682 0.13069956 -0.008372883
000340 b7 86 7b bd da e9 ff 3b 58 22 87 bd a2 2c b8 bd
       -0.06140777 0.0078098597 -0.065983474 -0.08992888
000350 cf 9c 0d 3e e2 8c 9f bc 34 c3 cb 3d 3f 77 fb bb
       0.13829349 -0.019476358 0.099493414 -0.0076741274
000360 ce 49 ca 3d fb f3 af 3b 36 1e e4 bc 8c 37 93 3d
       0.098773584 0.005369661 -0.027846437 0.07188329
000370 84 45 b1 3d 9f 79 48 3d 98 e1 6a bd 7b 14 20 3e
       0.08655837 0.048944112 -0.05734405 0.15632813
000380 82 21 26 bd cb b6 33 bc 3d 32 96 bd 2d 94 9b bd
       -0.0405593 -0.010968874 -0.07333801 -0.07596622
000390 73 1d a1 3d bb b7 7b 3d c3 ec 19 bc d8 73 82 bd
       0.07866945 0.061454516 -0.009394827 -0.06369752
0003a0 74 5c 02 bd fe 45 ad bd 29 0d 71 3d e2 f0 f4 bd
       -0.03182645 -0.084606156 0.05885044 -0.11960007
0003b0 e6 27 03 be e7 c1 bf 3d 7e d0 06 bd e3 43 4a 3d
       -0.12808189 0.09363156 -0.032913677 0.049381148
0003c0 98 b4 91 3d cf fd e6 bd 6c da 7d bd 0a 4d c3 3c
       0.07114524 -0.11278879 -0.06197588 0.023840446
0003d0 98 e6 0d 3e a2 6b 75 bd 71 b9 cf 3d 68 68 3f 3d
       0.13857496 -0.0599171 0.10142792 0.04673043
0003e0 85 37 1c bc 03 1e af 3d 2a d3 fe bd 3a f6 c2 3d
       -0.009534721 0.08550646 -0.1244262 0.0951962
0003f0 55 d3 a9 3d e1 4d 1c 3e d2 26 32 bd e9 08 a9 bd
       0.082922615 0.15264083 -0.043494053 -0.082536526

lstm.weight_hh_l0 f4 [256, 64]
000000 84 7e 78 bc b3 47 9c bd c2 54 7a bc 28 0e 45 3d
       -0.015166882 -0.07630863 -0.015278997 0.048109204
000010 c4 77 01 be a3 9a 7b 3c 6f fd cf 3d c0 ce 87 bd
       -0.12643343 0.0153566925 0.101557605 -0.06631231
000020 ca 7d 78 bd 52 aa 08 bd 7b 11 c1 bd 0c 93 fe 3d
       -0.060666837 -0.033365555 -0.09427162 0.12430391
000030 c2 8a fe bd cc de 2d bd 28 6a 0c 3d 6c e1 dd 3d
       -0.1242881 -0.042448804 0.034280926 0.108340114
000040 19 7d c1 bc 1b 34 d4 bd 90 60 7b 3d 5a 96 1f 3d
       -0.023619222 -0.10361501 0.061371386 0.038961746
000050 1a 38 87 bd 6a 13 3d bb 9f 81 53 bd 56 90 d8 bb
       -0.066024974 -0.0028850683 -0.05163729 -0.006609003
000060 3a 00 8a 3c ba 18 ff 3c f5 12 6a bd 0f d2 86 3d
       0.016845811 0.03113972 -0.057146985 0.06583034
000070 61 b4 62 bd 37 33 26 3e 2f 10 1b bd 5b 65 e0 bd
       -0.055347804 0.16230474 -0.03785723 -0.10956832
000080 34 21 41 bd af cc 37 3c 5b d3 c4 bd 5b 63 83 bd
       -0.047150806 0.011218234 -0.09610625 -0.06415435
000090 3f fb 8b 3d 33 e3 9f 3b 97 16 94 bd c9 a9 7e 3d
       0.06835031 0.004879379 -0.07230871 0.06217364
0000a0 0f 57 ad 3c 75 6d 03 3e 5f 97 85 3b c1 15 af 3c
       0.021159677 0.12834723 0.0040768827 0.021372678
0000b0 60 a9 b2 bb bd 65 d7 3d 19 0c ee 3b d3 3d c2 3c
       -0.00545232 0.10517452 0.0072646257 0.02371112
0000c0 d7 29 97 bd 7e e6 48 3d ba 1a 39 3d 85 f3 46 bd
       -0.07381027 0.04904794 0.045191504 -0.048572082
0000d0 98 32 bf 3c ca 6f df bc 0b 32 97 3d be ba a6 3d
       0.023339555 -0.027274985 0.07382592 0.08141087
0000e0 ce b4 12 bc 21 cc 0f 3d bd 80 0f 3d d3 b4 f4 bc
       -0.00895424 0.035106782 0.035034884 -0.02987138
0000f0 76 30 be 3c 3e 7d 48 3d 70 47 d8 3d 36 83 98 3d
       0.023216467 0.048947565 0.105605006 0.074469015
000100 ff ee 55 bd 29 09 66 3d 02 5f 08 be cb 59 11 3d
       -0.052229878 0.05616108 -0.13317493 0.035486024
000110 e3 a1 a3 3d b3 e0 09 3e d2 d7 84 3d e8 73 fa 3d
       0.07989862 0.13464622 0.06486477 0.122291386
000120 b1 d5 6a bd 1c 33 fd bd 1d a8 1a 3d ab 47 fd 3d
       -0.0573327 -0.12363264 0.03775798 0.12367185
000130 dc 9d c1 bc 90 ce bc bd 56 db 1a 3e 39 0c ec 3d
       -0.023634844 -0.09219086 0.15122733 0.11525769
000140 a2 e2 29 bd 4c a3 e1 bd ff ff d7 3d 1a 02 a4 3d
       -0.0414759 -0.110174745 0.10546874 0.08008213
000150 22 eb 00 3e 8a 0c 4a bd 51 4f 00 3d 39 b9 04 be
       0.12589696 -0.049328364 0.031325642 -0.12961282
000160 e9 07 3d 3e 55 5b 33 3d 68 98 98 3b 93 a1 f0 bd
       0.18460049 0.043788273 0.00465684 -0.11749568
000170 d8 64 8b bd fb 2e 34 bd a9 6e 39 bd 2a 88 24 be
       -0.06806344 -0.043990117 -0.04527155 -0.16067567
000180 fe 71 99 bb 6e 63 0a be 6c 25 bd bc 8d fd 54 3c
       -0.0046827784 -0.13514492 -0.023089133 0.012999904
000190 3f 20 85 bd e5 e1 78 bd 4c d2 0c 3e f1 6c a4 3d
       -0.06500291 -0.060762305 0.13752097 0.080285914
0001a0 19 2c fe 3d 25 14 21 3e d6 bc 97 bc 1c 46 e6 bc
       0.12410755 0.15730341 -0.018522661 -0.028109603
0001b0 4c 3d ea bc 04 c3 ef 3d 86 b0 fc bd 91 41 12 3d
       -0.028593682 0.11707118 -0.12338357 0.03570706
0001c0 c4 e7 c6 3d 6a cb 27 bd 1e a4 66 bc 3a a5 e0 3d
       0.097121745 -0.040965475 -0.0140772145 0.109690145
0001d0 c9 e0 25 3e ab 5c 3f bd 13 bd 6b bd 02 d1 f2 bc
       0.1619903 -0.046719234 -0.057553362 -0.029640678
0001e0 ef 54 84 bd c2 f0 16 3d 54 03 68 3d 75 bc 76 bb
       -0.06461512 0.0368507 0.0566438 -0.003764895
0001f0 85 26 eb 3d 35 03 2d 3d e1 24 a8 bc 71 c4 06 be
       0.114819564 0.042239387 -0.020525398 -0.13160874
000200 e0 cc 21 3d 83 69 14 be 73 d0 17 be 16 d5 c0 bc
       0.039502025 -0.14493375 -0.14825611 -0.023539107
000210 41 a2 1d bc 05 e5 1c 3e 4d c5 0b 3e e0 cc 2b bd
       -0.009621204 0.15321739 0.13649483 -0.04194343
000220 2d f2 75 bb db 42 0d bd 57 4d e1 bc e4 bc bc 3d
       -0.0037528381 -0.034487586 -0.027502699 0.092157155
000230 24 0a dd bc c7 cd c8 3d 80 d8 8d bd 6d a1 15 3d
       -0.026982374 0.09804874 -0.0692606 0.0365309
000240 42 a3 9c bd 1d 00 c5 3d 27 10 7d 3d 38 c1 a3 3d
       -0.076483265 0.09619162 0.061782982 0.07995838
000250 b8 1e 90 3c 70 0e 08 be 08 31 7d 3d 06 7a c3 3d
       0.017592773 -0.13286757 0.061814338 0.095447585
000260 ea 4e a4 3d b3 f1 04 be f4 48 f8 bc 8e 48 dc bc
       0.08022864 -0.12982826 -0.030308224 -0.026890066
000270 a8 b2 65 3c 81 7a 2d 3d 9a 25 0d be ab 91 10 be
       0.014019646 0.042353157 -0.13783875 -0.14118068
000280 d9 c5 0c 3d c9 fb 55 bd 42 4c c3 3d 16 75 ac 3d
       0.03436837 -0.052242074 0.095360294 0.0842077
000290 eb be b3 bd 88 3e c3 3d 16 77 8c 3d cb 69 a7 3d
       -0.08776649 0.09533411 0.06858651 0.08174475
0002a0 83 c4 de 3d 58 5e 88 3d 90 ce 04 be ff ca 91 bd
       0.108773254 0.0665862 -0.12969422 -0.071187966
0002b0 ea 3e 06 bd 2d 79 9c bc 1e e5 00 be b6 61 43 bd
       -0.032774843 -0.01910075 -0.12587401 -0.047700606
0002c0 87 eb 32 3d a9 b3 24 3e e3 6a ed 3d c8 6a 04 3c
       0.043681648 0.1608416 0.11592653 0.008082099
0002d0 61 f8 c8 bc 03 a0 e3 bd 36 4f d3 bd d8 17 60 3d
       -0.024532499 -0.11114504 -0.10317843 0.05471024
0002e0 06 01 8d 3d c3 00 06 be 09 cf fa 3d ec 2d 0d bd
       0.06884961 -0.13086228 0.1224652 -0.034467623
0002f0 e2 7b bf 3c 8b 52 bd bd cc ce f6 bc 74 6c 16 bd
       0.023374502 -0.092442594 -0.030127905 -0.036724523
000300 a7 e9 bd bd 68 c2 34 be 3c 01 29 be f5 04 a0 bd
       -0.09273081 -0.17652285 -0.16504377 -0.078134455
000310 ce c6 40 bd 3b fe cb bd 3d 2c b3 3d ff 08 2a bc
       -0.047064595 -0.099606 0.08748672 -0.010378121
000320 67 84 b3 bd dd 07 e6 3d 9b b0 c7 3d 22 59 4b 3c
       -0.08765488 0.112319686 0.09750482 0.012411388
000330 37 ac 0a bd 40 fc 11 bd 52 02 ab 3c bc 47 64 3d
       -0.033855643 -0.035640955 0.02087513 0.055732474
000340 75 eb 8c 3d b7 3c 10 bc 14 45 5a 3d 64 a6 6e bd
       0.06880847 -0.008803538 0.053288534 -0.05826415
000350 81 fc 40 3d 4a 1a 51 bd 93 8b 2a bd c2 cf e5 bb
       0.047115806 -0.05105046 -0.041637015 -0.007013292
000360 9d 5a 7b bc 62 69 8d bd 47 89 b3 3d 81 f6 a7 3d
       -0.015341428 -0.06904866 0.08766418 0.08201314
000370 8a 55 f7 3c 07 0e 32 3d 2a 09 99 bc ae 44 25 3d
       0.030192155 0.04347041 -0.018681128 0.0403487
000380 b0 62 c0 3c 8f 73 a3 bd 00 d0 af bc 3d 7d d4 3c
       0.023484558 -0.079810254 -0.021461487 0.025938625
000390 9e c9 a7 3d b8 81 e2 bb 6f ac 8a 3b e2 4d e4 3c
       0.08192752 -0.0069124363 0.0042319815 0.027869169
0003a0 fb f8 b6 3c d2 bd 28 3c 9d 17 b0 3d 5e 29 0f bd
       0.02233552 0.010299163 0.08598254 -0.03495156
0003b0 00 f1 09 be c9 17 83 bd 55 a2 bc 3d ca b7 d3 3d
       -0.1347084 -0.06401021 0.0921065 0.10337789
0003c0 79 44 06 3e 9d 4f b4 bd 54 d3 bf 3d 0e c8 56 3d
       0.13112058 -0.088042475 0.093664795 0.05243688
0003d0 a6 d8 3d 3d ba 83 a0 bd 65 71 3a be 60 ed b4 bd
       0.04634919 -0.07837625 -0.18207319 -0.08834338
0003e0 95 cc 13 be ab 1c a4 bc 39 97 f5 bd 60 7b 2b 3c
       -0.1443351 -0.020033201 -0.11991734 0.010466427
0003f0 b9 35 2e bd 45 34 99 3d 41 7c 55 bd 46 3a 93 3d
       -0.042531703 0.07480673 -0.05212045 0.07188849

lstm.bias_ih_l0 f4 [256]
000000 68 cc d8 3d ec 62 e4 3d 45 42 72 3d 25 84 cc bd
       0.105858624 0.1115168 0.05914523 -0.09986142
000010 f7 f8 ed bd 5c 63 00 3d ab 83 7c 3d 3c f1 43 bd
       -0.11619752 0.031344756 0.061649006 -0.04783748
000020 d3 f8 83 3c 31 03 f6 bb 41 a2 ae bc 47 67 5e bd
       0.01610986 -0.0075077047 -0.021317603 -0.05429771
000030 9f f2 1f 3e e0 d7 6b bd dd 51 07 3c ee 2f 70 3d
       0.15619896 -0.05757892 0.008259264 0.05863946
000040 7d ee af 3d 75 87 6f bb 1d cf 96 3d 2d 35 27 3d
       0.0859041 -0.0036549245 0.073637225 0.040822197
000050 7d 63 b2 bd a3 d7 e4 bd 9d e6 39 3d 1f cb 12 3d
       -0.08710382 -0.11173942 0.045385946 0.035838243
000060 48 05 95 3d 1c 37 e3 3d 3a 37 6d 3d 71 59 86 bb
       0.07276398 0.11094496 0.057913996 -0.0041000177
000070 c9 1b 6a 3d a6 fd c6 bd 16 c5 af 3d 73 ed dc 3d
       0.057155404 -0.09716348 0.08582513 0.10787477
000080 e7 a9 9c 3d 9a d4 f4 bd bd fa 4d bd 37 2e 68 bd
       0.07649594 -0.11954613 -0.05028795 -0.0566847
000090 34 96 48 bd 7e 0b 87 3d 97 22 3a 3d c6 e7 b4 bd
       -0.04897137 0.06593989 0.045443144 -0.0883327
0000a0 35 57 07 3e ee 0a c3 bd 7d 52 c1 bc 83 07 4e bd
       0.1321686 -0.09523569 -0.023598904 -0.050300132
0000b0 86 b3 d3 bd 8c 63 24 bd 95 56 b0 3d 44 b0 96 bd
       -0.10336976 -0.040133998 0.08610264 -0.07357839
0000c0 a7 50 73 3c c4 14 e5 3d dd 16 fc bc 37 85 b2 3d
       0.014850772 0.11185601 -0.03077262 0.08716815
0000d0 44 9c 89 bd e5 d1 ff bd 4a b0 af bd 23 32 95 3d
       -0.067192584 -0.12491206 -0.08578546 0.072849534
0000e0 26 f4 cd 3d 51 13 41 bc 47 87 25 3d b0 38 e9 3c
       0.10056333 -0.011784391 0.040412214 0.028469414
0000f0 39 68 a4 3d d2 df 6e 3d 91 b8 79 bd e3 b2 a0 3d
       0.080276914 0.05831892 -0.060967032 0.0784662
000100 92 73 61 bc 48 65 0e 3e 54 f2 5a bc ca 67 41 3d
       -0.013760464 0.13905823 -0.01336344 0.04721812
000110 7b 41 d5 3d 69 8e 96 3d 1a 90 c1 3d bc 1c fb 3d
       0.1041288 0.07351381 0.09451313 0.1226134
000120 fb c5 cc bb 6e 49 07 be a9 37 b6 bd 99 c6 65 bd
       -0.006249187 -0.13211605 -0.08897335 -0.0560976
000130 d9 b0 c9 bd bd 38 cd 3d 11 16 fc bd 26 59 11 3c
       -0.09848184 0.100205876 -0.12308896 0.008871352
000140 dd ed c6 3d d8 15 f7 3d 9e 10 b7 3c 65 95 55 bc
       0.097133376 0.12064713 0.02234679 -0.013036107
000150 15 79 53 bc 9e f5 9f bd 0d 41 ce 3d 19 d0 86 bd
       -0.012907286 -0.0781052 0.10071001 -0.0658266
000160 06 53 b7 3d 6e 71 ee 3d 6c 56 ee bd 67 1b 0a 3c
       0.08951382 0.11642729 -0.116375774 0.008429385
000170 e5 db cf 3d e7 86 ea 3d b4 09 3f 3d 98 f0 cf 3d
       0.101493634 0.11451512 0.046640113 0.101533115
000180 58 d5 de 3c 0a 7a 0b 3d 28 af d6 bc 92 b0 ab 3d
       0.02720134 0.034051932 -0.026206568 0.083832875
000190 95 9d 36 3c bc d1 6f 3d 00 da ef bd 84 01 20 3e
       0.011145969 0.058549628 -0.11711502 0.15625578
0001a0 fa 8f b7 3c bd c3 ed 39 bc 51 56 bd fa 34 ed bd
       0.02240752 0.0004535 -0.05232404 -0.1158237
0001b0 51 98 76 3d 94 e7 0c bd 6d da bb bd 47 62 20 bd
       0.060203854 -0.034400538 -0.09172521 -0.039156225
0001c0 79 c4 cb 3d 9f 2a 61 bd b9 fd 2c 3d e2 d2 d9 3d
       0.099495836 -0.054972287 0.042234156 0.10635926
0001d0 71 99 85 3d 39 65 51 3d d6 7a 75 3c 69 38 6d 3d
       0.06523407 0.051121924 0.0149829 0.057915125
0001e0 83 b0 dc 3d c8 97 56 3d 69 dd 87 bd d1 a8 8b 3c
       0.107758544 0.052390844 -0.066340275 0.017048271
0001f0 95 11 ad bd 1e ec d0 3d 03 84 23 3c 1f 14 c6 bd
       -0.08450619 0.10201286 0.0099802045 -0.096718065
000200 cf 10 71 bd ed d5 90 bd a6 da 15 bd a3 25 ff 3d
       -0.05885392 -0.07072053 -0.036585473 0.124583505
000210 7a 7b 5e bd f3 e0 de 3d b8 7d e3 3d 30 96 28 3d
       -0.054316975 0.108827494 0.11107963 0.041158855
000220 ab a1 ad bd 42 f3 06 bd 54 e3 e1 3d b6 8b e3 3d
       -0.08478101 -0.032946832 0.110296875 0.11110632
000230 23 10 01 be 24 fc a2 3d 98 52 0f 3d 98 b0 85 3d
       -0.12603812 0.07958248 0.034990877 0.06527823
000240 4b 70 f0 3d b5 30 ff 3b bf 2c 8e bd 36 6b ff bd
       0.11740168 0.0077877888 -0.069421284 -0.12471621
000250 b5 61 79 bd ea 92 9e 3d 57 4a c2 3d 28 db 83 3d
       -0.060884196 0.077428654 0.094868354 0.06438285
000260 5d 53 d8 bd 26 74 91 ba 50 35 b3 bd b1 f1 ac 3d
       -0.10562775 -0.0011097237 -0.08750403 0.084445365
000270 df 54 f7 3c 54 8b 74 3d 0c bd 98 3c 1b 07 00 3d
       0.030191837 0.059703186 0.018644832 0.031256776
000280 8c 08 ee bc f1 ca ec ba 0e 49 00 be 95 c5 86 3d
       -0.02905681 -0.0018065852 -0.12527868 0.065806545
000290 b1 e9 d6 bd 58 be a6 3c a3 b1 f7 3d b1 ee 23 3d
       -0.10493792 0.020354435 0.120944284 0.040022556
0002a0 91 9a 92 bd 36 1f 89 3d fa df 3f bc b5 0e c0 38
       -0.071583875 0.06695406 -0.011711115 9.158013e-05
0002b0 76 8e a2 3d f2 26 ff 3d 10 34 02 bd a9 bf fb bc
       0.079373285 0.124586 -0.031787932 -0.03073104
0002c0 2e 6b f8 bb 2a cd 01 bd 6a 37 ff 3d af 93 02 be
       -0.007581136 -0.0316898 0.12461741 -0.1275165
0002d0 4f 1b b4 3d dc 08 b2 bc e9 bf d4 bd af c8 cb bd
       0.08794271 -0.02173274 -0.103881665 -0.09950387
0002e0 55 88 30 3d 13 61 21 3d 8f 3f 71 3c 6e e0 ba 3d
       0.043098766 0.039399218 0.014724626 0.09124838
0002f0 47 44 da bd f4 72 64 3d 6f 88 88 3d 8e 12 0d bc
       -0.10657554 0.05577369 0.06666648 -0.008610381
000300 d3 00 c2 3d 16 53 d9 bc d5 ce 61 3c 55 95 dc bd
       0.094728135 -0.026528876 0.013782223 -0.1077067
000310 2f 55 b0 bd 7a 8a df bd e3 88 8e bd fa 1e b1 3d
       -0.086099975 -0.10915084 -0.06959703 0.086484864
000320 7a 8d 9d 3c 04 1f 20 bd 9b b8 1f bd 83 0f 2a 3d
       0.0192325 -0.03909208 -0.038994413 0.0415187
000330 fd 0a b0 bd d3 f5 94 3c 25 bc 8d bc 06 62 3a bc
       -0.08595846 0.018183624 -0.017301628 -0.01137591
000340 d4 79 85 bd 91 4d 97 3d 79 1b 59 bc d2 a7 9d 3d
       -0.065173775 0.073878415 -0.013251179 0.07698025
000350 ac a2 e4 3d 9e c9 31 bd 1f cd 13 bd 13 bc a1 bd
       0.1116384 -0.043405168 -0.03608429 -0.078972004
000360 c7 b3 ad bc 21 ef cd bd ac 51 15 3e eb 0f 64 3b
       -0.021203889 -0.10055376 0.14581937 0.0034799527
000370 ba 98 ba 3c 74 a9 94 bd ce 9d c3 3d 95 d0 97 bd
       0.022777904 -0.07258883 0.09551583 -0.07412831
000380 08 47 05 3c 86 31 88 bd 63 e6 91 3d f9 ec 47 bd
       0.008134611 -0.06650071 0.07124021 -0.04880998
000390 db 4e a6 bd b7 5c 81 bd d6 11 f0 bd 7b 92 56 3d
       -0.08120509 -0.06316512 -0.11722152 0.05238579
0003a0 7e 89 03 3e ae df 89 bd 1e 25 11 3e a6 96 1a 3c
       0.12845418 -0.06732117 0.14174315 0.009435331
0003b0 42 b4 b0 bd 56 79 4e 3d aa 4e ae bd a0 a2 58 bd
       -0.086281314 0.050408684 -0.08511098 -0.052889466
0003c0 68 89 02 be ec 2e 12 bd 05 5c 7d bd 5f ce f8 3d
       -0.12747729 -0.03568928 -0.061855335 0.12148737
0003d0 fa 68 a4 3d d5 81 b2 bc c5 31 19 3c 87 68 9d bd
       0.08027835 -0.021790424 0.009350245 -0.07685953
0003e0 7f b4 a0 3d 06 28 e4 3d d3 ab e9 3c 2a 40 a9 3b
       0.07846927 0.11140446 0.028524315 0.0051651197
0003f0 f2 0e c5 bd a7 1f 45 bc 6f 33 82 3d 59 0b e1 3d
       -0.09621991 -0.012031472 0.063574664 0.109884925

lstm.bias_hh_l0 f4 [256]
000000 af 78 73 bd 16 ee a1 3d cb 8c 18 bd 6c 37 8e 3b
       -0.059441265 0.079067394 -0.037243646 0.004340103
000010 02 99 56 bd a6 45 ac bd ab 7e ba 3d 8d 4d fa bc
       -0.052392013 -0.08411722 0.09106191 -0.030554557
000020 19 9b 52 bd 39 e3 98 bc 89 a3 57 bb a3 71 94 3b
       -0.051417444 -0.018663036 -0.003290387 0.004530148
000030 43 72 ba 3c 12 92 9c 3c 73 d8 a7 3d fc e9 ee bd
       0.022759562 0.01911262 0.08195581 -0.11665723
000040 da b1 5e 3d ec ef 9a 3d a3 5c f0 3d 83 d5 b3 bd
       0.05436883 0.07565293 0.11736419 -0.087809585
000050 21 1b a0 bd e3 b8 2a 3d 1e 9d f2 3b c7 25 aa bc
       -0.078176744 0.041680228 0.0074039837 -0.020769967
000060 0a a0 e8 bb 21 7a 51 bd f2 fc bb 3c dd 7b af 3d
       -0.0070991563 -0.05114186 0.022947762 0.08568547
000070 c2 70 62 bd 83 46 03 3e 60 4a 9b bd 75 a1 e9 3d
       -0.055283315 0.12819867 -0.07582545 0.114077486
000080 e9 42 de bd de 5f a9 3d fa 53 8e bd 6d 94 e5 3d
       -0.10852606 0.08270238 -0.06949611 0.112099506
000090 30 a3 f5 bc 62 28 85 bd 34 bd ea 3d 6c 56 94 3d
       -0.02998504 -0.06501843 0.11461869 0.07243046
0000a0 47 df 1a bd ad 57 15 3d 24 2c 96 3d 48 9b c5 3d
       -0.03781059 0.036460567 0.07332638 0.09648758
0000b0 3a 1a ba 3d df 4b 13 bb 9d a5 e4 3d ba 50 30 bd
       0.090870336 -0.0022475643 0.11164401 -0.043045737
0000c0 4a 39 55 3d c7 e5 5a bd cf ac f4 3d b5 bf bc bd
       0.05205659 -0.05344179 0.11947023 -0.09216253
0000d0 69 e1 da bc c6 90 72 3c a7 f0 8e bd 6b d3 d1 3d
       -0.026718812 0.0148050245 -0.069794945 0.10245403
0000e0 7f 1d d6 3c a7 d0 a2 3c 52 1d 93 3d d8 3e 98 bd
       0.026137112 0.019874884 0.07183327 -0.074338615
0000f0 3a 35 dd 3d 21 70 e0 3c 6c f4 fb 3b 8b 73 ed bd
       0.10801168 0.027397217 0.0076890495 -0.11594304
000100 d2 69 8b 3d 34 05 b2 3d af 80 07 3d 05 c6 ab 3b
       0.06807293 0.08692399 0.033081707 0.0052421116
000110 e3 29 ae bd 0e 71 7c 3d f6 46 a4 3b 18 d0 9b bb
       -0.08504083 0.061631255 0.005013342 -0.0047550313
000120 19 fa fd 3d f0 47 81 3d 7c 8d 02 3d 08 78 d9 3c
       0.12401218 0.06312549 0.03187321 0.026546493
000130 13 58 89 3d fb b6 b1 3d a9 79 3f bc 1d 23 10 3d
       0.06706252 0.08677479 -0.011686721 0.035189737
000140 9d ae b9 bd 4a 78 9b bd 87 7e b1 3d fb 1e c7 bd
       -0.09066508 -0.07591303 0.08666711 -0.09722706
000150 a6 dd d4 bc 02 0b bc bd 5c 9c 39 bd 83 b0 e9 3d
       -0.025984596 -0.09181787 -0.04531513 0.1141062
000160 db 35 05 3e f2 40 dc 3d 55 8a 98 bd 42 77 4e 3d
       0.13008825 0.10754575 -0.0744826 0.050406702
000170 f5 3e a3 3d 93 e2 a8 bd 23 25 a1 bd a4 b8 82 bd
       0.079709925 -0.082463406 -0.078684114 -0.06382874
000180 d0 33 a9 bd 26 81 08 3d b3 be 81 bd 55 30 c7 bc
       -0.082618356 0.03332629 -0.06335201 -0.024315039
000190 7b f9 58 bc 75 99 e1 bd 00 03 c1 bd 52 10 24 bd
       -0.0132430745 -0.11015598 -0.094244 -0.040054627
0001a0 ca cc 45 3d 16 23 b9 bd 1f 4d e1 bd 84 a1 cc bd
       0.048291005 -0.09039895 -0.11001038 -0.09991744
0001b0 a9 28 54 bd 50 ae 40 bd e3 80 db 3d 46 45 30 bc
       -0.05179659 -0.047041237 0.107179426 -0.010758704
0001c0 ea df fe bc 41 ac 2a bd 4a dd bb bc 16 19 c1 bd
       -0.03111263 -0.04166818 -0.022932667 -0.09428613
0001d0 9c de 14 3e 0b 1c 70 3d 30 be 32 3d 92 64 7b 3a
       0.14538044 0.058620494 0.04363841 0.0009589876
0001e0 c7 b1 f7 bc ec e9 e2 bd 54 d7 19 bd dc a3 8f 3d
       -0.030236138 -0.11079773 -0.03755887 0.070136756
0001f0 f8 e2 68 bd b8 23 10 3d 9d 63 e8 bd 19 07 dd 3d
       -0.05685708 0.035190314 -0.11347125 0.107923694
000200 ab 6a 0c 3e 6e e3 76 3d e2 d0 e0 3d b0 8c 4a 3c
       0.13712566 0.060275488 0.10977341 0.012362644
000210 9a 70 a7 bd 0c 01 61 3c 0e c3 aa bd f4 d1 ec 3d
       -0.08175774 0.01373316 -0.08337985 0.11563483
000220 33 4c cd bd 5a aa 61 bc 98 45 e1 bd b5 e3 ce bc
       -0.100242995 -0.013773525 -0.10999602 -0.025255064
000230 95 10 e4 3d 55 c0 29 bd e3 f0 fa bd 03 e0 af 3c
       0.11135975 -0.041443188 -0.12252977 0.021469122
000240 b3 31 04 bd 7c 95 ed bc 6b 41 39 bc 11 fa c7 3d
       -0.03227396 -0.029001944 -0.011307101 0.09764493
000250 75 a7 60 3d 8a 4b 6c ba 6c 17 5b bd 7f 8f df 3d
       0.0548472 -0.0009013942 -0.053489134 0.109160416
000260 e6 e3 71 3d 42 8a 7c bd 61 7c 86 3c ce 52 d5 ba
       0.05905523 -0.06165529 0.01641673 -0.0016275288
000270 85 22 a9 bb 2c 31 c3 bc 64 10 84 bd 5e ec 8c bd
       -0.0051615858 -0.023827158 -0.06448439 -0.06881021
000280 d2 e2 95 bd a0 a4 85 3d 60 5a 9c bd f6 7a 40 bd
       -0.07318653 0.0652554 -0.07634425 -0.046992265
000290 6c 6f 89 3d 25 96 8b 3d f6 b3 ff 3c f9 06 a5 bd
       0.06710705 0.06815747 0.031213742 -0.080579706
0002a0 72 19 07 bd 6a 20 c5 bd 82 a1 b5 3c a8 74 b2 3d
       -0.03298325 -0.09625323 0.02217174 0.08713657
0002b0 3d f6 39 bd c1 92 d5 bd 13 ae a7 3d b6 de a4 3d
       -0.045400847 -0.10428382 0.08187499 0.08050291
0002c0 4a 1d e2 bd c0 79 9c 3d eb d4 51 bd c4 05 ac 3d
       -0.11040743 0.076404095 -0.051228445 0.08399537
0002d0 49 98 d1 bd dc d8 91 bd dd fe b2 bd ce 54 f6 bc
       -0.10234124 -0.07121441 -0.087400176 -0.030069735
0002e0 1b 4a 6e bd 3b 08 02 3c 7b ca ea bd f2 c6 b5 bd
       -0.05817614 0.007936533 -0.11464401 -0.088758364
0002f0 6b f3 28 bd d9 1e 65 bd 7b b6 16 bc 88 88 b8 bd
       -0.041247766 -0.05593762 -0.00919878 -0.09010416
000300 df 62 d4 3d 06 37 72 3d 84 90 81 bd f8 79 94 bc
       0.10370421 0.059134506 -0.06326392 -0.018124565
000310 a7 9c d0 3d 36 f0 bf 3c ac 88 04 be 15 d0 55 3d
       0.10186129 0.023429971 -0.12942761 0.052200396
000320 25 70 f2 bd 86 fa a3 3c 36 34 b0 3d 5b 9f af bc
       -0.11837796 0.02001692 0.086037084 -0.021438291
000330 6d 31 dc bd 84 86 c3 bd fa b2 2d bd d8 94 24 bd
       -0.10751615 -0.09547141 -0.042407013 -0.04018101
000340 82 b7 02 be 56 b9 08 bc c3 86 b8 3b 57 04 8e bc
       -0.12765315 -0.008344969 0.005631299 -0.017336054
000350 c3 f2 33 3d 27 6f fe bc 59 d1 d3 3d 38 2a 03 3e
       0.043932687 -0.031058861 0.10342664 0.12809074
000360 1e 80 bc 3d 63 7e 73 bd 86 66 a7 bd 4d f4 31 3c
       0.09204124 -0.059446704 -0.08173852 0.0108614685
000370 c2 4f 0a bd 01 43 08 3e 2a 87 f1 3d dd 98 84 bc
       -0.03376747 0.1330681 0.117933586 -0.016186172
000380 83 73 f6 bd e3 04 8b 3d 3c bf e6 3c 4d f9 92 bd
       -0.12033751 0.067880414 0.02816736 -0.071764566
000390 63 71 e4 3d 9a e5 b9 3c dd 1d cf 3c d7 d7 cf bd
       0.11154439 0.02269249 0.025282795 -0.1014859
0003a0 91 6c 7c bd 47 8a 49 bc 2a bd 8e 3d b2 ca 9d 3d
       -0.061626974 -0.012301034 0.06969674 0.07704677
0003b0 4e 9f b0 3d ba 5c 66 3d 73 1f d0 bb 02 bf b0 bd
       0.08624135 0.056240775 -0.0063514053 -0.08630182
0003c0 82 b9 c2 3d a8 41 40 3d fd 23 77 bd 34 cb ed bd
       0.09508039 0.046937615 -0.060337055 -0.116110235
0003d0 0c 98 0a bd d4 fd 21 3c be 42 9d 3d f1 89 25 3d
       -0.03383641 0.0098871775 0.07678746 0.040414754
0003e0 d9 67 a2 3d c6 e1 d1 bd c6 bb 86 3c 0d 23 f1 bc
       0.079299636 -0.10248141 0.01644696 -0.029435659
0003f0 4a 61 68 ba d2 a1 0e 3e 95 bf d6 bd e3 92 b8 3d
       -0.0008864595 0.13928917 -0.1048576 0.090123914

lstm.weight_ih_l1 f4 [256, 64]
000000 07 8c 95 39 23 48 47 be 65 ea d0 bd 3d 14 4f bc
       0.00028523823 -0.19461112 -0.10200957 -0.0126391025
000010 b2 80 0c be 9b 49 40 3d 91 8c 72 bd 0a c6 6f 3d
       -0.13720968 0.046945196 -0.059216086 0.058538474
000020 b1 f4 1b 3d 9b 7a af bc 36 81 3d bd a6 27 88 3b
       0.038075153 -0.021420768 -0.046265803 0.004155117
000030 b1 dd 17 3e 43 ca 8f bd 84 d5 49 3c ab 52 62 bc
       0.14830662 -0.07021 0.0123189725 -0.013813655
000040 ed 61 c0 3d e4 a5 d8 3a fa 74 f3 3d 81 82 7e bd
       0.09393678 0.0016528931 0.11887546 -0.062136177
000050 85 77 6f 3d b7 90 47 bd 2f 31 3d be 50 d0 88 bd
       0.058463592 -0.048721995 -0.18475793 -0.066803575
000060 75 cf 35 3e 4c 4f ee bb 3b 31 99 3c 82 52 c9 bc
       0.1775492 -0.0072726365 0.018700233 -0.024575476
000070 b2 02 80 bd 61 2c b0 bd 2b 05 02 be 09 ee 13 3c
       -0.06250514 -0.086022146 -0.12697284 0.00902892
000080 08 b4 d6 bd a1 25 97 bc 59 6d 86 3d 6b 26 b1 3d
       -0.10483557 -0.01845056 0.06563825 0.08649906
000090 0a ba 4e bd a6 ba 34 be 97 9a fb 3d 65 ab 91 bd
       -0.05047039 -0.17649326 0.12285345 -0.07112769
0000a0 4f 15 da 3d f6 97 32 bd 5d eb 3a bd 08 2f f1 3d
       0.106485955 -0.043601952 -0.045634616 0.117765486
0000b0 df e9 0f 3d 8b d3 b3 3d 98 d3 96 bc a2 ed 0f be
       0.035135146 0.08780583 -0.018411443 -0.14055493
0000c0 14 58 10 3e 78 ec 66 3d 6d 25 87 3c ba 29 2f 3c
       0.14096099 0.056377858 0.016497338 0.010691101
0000d0 1f ad 28 bd 0c 8d f9 bd d1 67 0f 3d e5 02 79 bd
       -0.041180726 -0.12185106 0.035011116 -0.060793776
0000e0 b6 a7 67 bd 7f 59 7c bd 70 62 00 3e ab b0 0f bd
       -0.056556426 -0.061608788 0.12537551 -0.035080593
0000f0 e6 ca 0e bd 94 d1 ac bd e7 39 4a 3d f5 97 0e be
       -0.034861468 -0.08438411 0.049371626 -0.13925155
000100 7c 12 a2 bd e8 a4 34 3e 80 4e 9c 3e dd e6 40 3d
       -0.07913682 0.17641032 0.3052864 0.04709517
000110 7c 89 56 bd db c9 3d bd 89 d8 78 3d 67 22 9f bc
       -0.05237721 -0.046335083 0.06075338 -0.019425584
000120 a7 a9 c2 3c ea dc a8 bc f3 41 15 be c0 ee d8 3b
       0.023762537 -0.020613153 -0.14575939 0.006620258
000130 03 06 ef bd c7 81 e0 3c f5 22 25 be 63 7e 41 bb
       -0.116710685 0.027405633 -0.16126616 -0.0029524795
000140 4b 23 a5 bc 96 3c 84 be 4c de 49 be 4c 44 4e 3e
       -0.02015843 -0.25827473 -0.19713706 0.2014324
000150 16 d6 05 be 47 9f f0 bd 9e 38 c8 3d 9c 51 cd 3d
       -0.13069949 -0.1174913 0.09776424 0.100253314
000160 7e 95 9c bd 0e 79 42 3d c1 e5 f1 bd ed 38 fd 3d
       -0.07645701 0.047478728 -0.118114 0.12364373
000170 8a 90 6a 3d 6b 28 0d 3d 00 07 68 3d da af 94 3d
       0.05726675 0.034462374 0.0566473 0.072601035
000180 f3 d9 c0 bd 6d 44 b7 3d b5 88 20 3d c4 de 76 3d
       -0.094165705 0.08948598 0.039192874 0.06027104
000190 9d 67 41 3e 8b 9e aa bd 7c 3f 7b bd 0a 99 a5 3d
       0.18887182 -0.08331021 -0.06133984 0.080858305
0001a0 cc 2e 66 3c 8b 62 10 3d 93 65 d6 bc 63 ba fe bc
       0.014049243 0.035250228 -0.026171481 -0.031094735
0001b0 bc ad 19 3e ef 16 ab bd bb e3 dd 3c b4 94 ba 3d
       0.1500768 -0.083539836 0.02708613 0.09110394
0001c0 c6 b3 52 bc 2c ca 17 bd be 2f 2d be 77 bb 00 3e
       -0.012860244 -0.03705804 -0.16912743 0.12571512
0001d0 53 06 1d 3d 4d ef 2f 3e b8 a9 32 3e fb a9 fc bc
       0.03833611 0.1718113 0.17447555 -0.030842772
0001e0 6a 3c 95 3c 02 eb 44 3d d0 32 cf 3d 00 85 dd bd
       0.018217284 0.048075683 0.101171136 -0.10816383
0001f0 cf aa 82 3e 83 c2 ec 3c 7a 73 15 be 85 d2 54 3d
       0.25520942 0.028901344 -0.14594832 0.05195858
000200 47 ff 0b bd 52 8a 05 3e 22 7a ae 3d ad e6 44 3d
       -0.034179 0.13041046 0.08519389 0.048071552
000210 5f e9 5c bd 98 c3 81 3b 27 05 3f 3d 41 72 b7 3a
       -0.053933498 0.003960084 0.046635773 0.0013995842
000220 6c 41 be bd cd 31 95 3d 05 58 8d bd 13 c9 e1 3d
       -0.09289822 0.07284889 -0.06901554 0.1102468
000230 91 b6 46 bc 35 b2 27 3d 11 a2 15 be 4d a7 7e bd
       -0.012128488 0.040941436 -0.14612605 -0.06217127
000240 6a a5 a6 bd 60 26 ac 3d 44 04 5f bd 8a ac 54 bd
       -0.08137019 0.08405757 -0.054447427 -0.05192236
000250 f8 8d fc 3d e4 dc 29 be 84 fe 17 be ab c7 0c be
       0.12331766 -0.1658817 -0.14843184 -0.13748042
000260 8b 0a 0e 3d f5 15 0d be 67 aa 10 be 75 ba d9 3c
       0.034678023 -0.13777907 -0.14127503 0.026578167
000270 c0 8f df bc 25 e8 14 3d 16 fa a4 3b f5 2d b4 bd
       -0.027290225 0.036354203 0.0050346954 -0.08797828
000280 6e fb 0c 3d 47 67 b8 3d 28 0c ec bb 19 81 c1 3d
       0.03441947 0.090040736 -0.0072035976 0.094484515
000290 2e fe b4 bd 4a 9c c8 3d 06 65 1e 3d 76 9b ab 3d
       -0.088375434 0.09795435 0.038670562 0.08379261
0002a0 d0 97 f7 3d 7d 6e 8a 3d 68 14 9d 3c 97 62 46 bd
       0.12089503 0.06759355 0.01917477 -0.048433866
0002b0 fc 1d 87 bb b2 03 40 be de 9c 13 3a 19 83 f9 3b
       -0.0041234475 -0.1875141 0.000563098 0.007614505
0002c0 14 41 b3 3d b7 a2 76 3d af 61 87 bd 62 66 63 3d
       0.08752647 0.06021377 -0.066104285 0.05551756
0002d0 73 64 4f bd 6a 99 92 3d 75 bb 31 3d 83 4e 27 bd
       -0.050632905 0.07158168 0.043391664 -0.04084636
0002e0 38 c8 c2 bd 39 f6 f9 bd 2e 47 12 3e 2b 9a 91 3d
       -0.09510845 -0.12205166 0.14284965 0.07109483
0002f0 d8 c4 5d 3e ca b4 18 3d 84 88 fd 3c 1c 0c 35 bb
       0.21657121 0.03728179 0.030948885 -0.0027625626
000300 64 16 74 be 51 b7 03 3e d2 4f 33 3a 6a 87 38 be
       -0.23836666 0.12862898 0.0006840202 -0.18020406
000310 29 4c c2 bc 88 b8 64 3e b4 28 a2 3d 3c b7 1f bd
       -0.023717957 0.22336018 0.0791792 -0.038993105
000320 47 cd 93 bd 32 63 55 be 22 ac 0d 3d 3d c2 0a 3e
       -0.07216888 -0.20838621 0.034587987 0.13550659
000330 1a d1 9c bd db 2d ba bc 61 ff d1 3d 9f 19 36 3e
       -0.076570705 -0.022726944 0.10253788 0.17783211
000340 ff 2f 97 be 8a c3 95 bd 2b 2c b4 3d e9 02 6a bd
       -0.29528806 -0.07312687 0.08797487 -0.05713168
000350 20 13 5e 3d 1e 90 a8 be 8b 23 f3 bd 31 73 be 3c
       0.054217458 -0.32922453 -0.11872014 0.023248287
000360 49 09 1e 3e 98 a8 5d bc cb 6c 00 be 42 6e 73 be
       0.1543323 -0.013528965 -0.12541501 -0.23772529
000370 a4 75 26 3d 62 ef d9 3c 36 92 80 bd ff 7c a6 bd
       0.040639535 0.026603404 -0.062778875 -0.0812931
000380 e6 7d ad 3d d4 8d 16 be c3 f2 f0 ba 72 00 b5 3c
       0.08471279 -0.1470254 -0.0018382896 0.022094939
000390 54 97 ae 3d c3 3f 6c 3d 27 95 e2 3d 82 5c 3d 3e
       0.08524957 0.057677995 0.11063605 0.1849232
0003a0 5c ac dc 3d 43 dd c8 3d c9 8c 2a be 0a 07 a8 3d
       0.107750624 0.09807827 -0.16655268 0.082044676
0003b0 0b 11 69 bc 61 75 36 bd c6 ec 35 be 2c f5 19 3d
       -0.014225255 -0.044545535 -0.17766103 0.03758733
0003c0 2c a4 2f 3e 6d 0a ce 3c 7b b1 fc bd ba 44 84 3e
       0.1715247 0.025151456 -0.12338539 0.25833684
0003d0 28 e4 4a 3e 31 1f a0 bc bf ca d0 bd 11 1e 19 be
       0.19813597 -0.019546123 -0.10194921 -0.14952876
0003e0 a7 57 45 be 40 a1 64 bd 9e af 18 3e d5 fe cc bb
       -0.19271718 -0.055817842 0.14910743 -0.0062559643
0003f0 f5 cd 8e bb 28 ba c9 bd 4d f0 9d 3d 4f f4 8b bd
       -0.004358048 -0.098499596 0.07711849 -0.068337075

lstm.weight_hh_l1 f4 [256, 64]
000000 73 ea 29 3d 6e 94 47 bd 1d 89 dd bc 50 49 f7 bd
       0.041483354 -0.048725538 -0.02704292 -0.1207453
000010 f8 01 90 3e 45 05 2f be a9 3f 99 3d d1 ee d6 bc
       0.28126502 -0.17091854 0.07482845 -0.026236923
000020 d1 10 06 3d 4a ad 09 be 0b 87 f7 bd be bf 00 3d
       0.03273088 -0.13445011 -0.12086304 0.03143286
000030 22 fb 2e be d8 1b 65 bd 8f e7 e9 3d b6 a0 04 3d
       -0.17087987 -0.055934757 0.114211194 0.03237983
000040 e9 10 a3 3d bd e5 25 3d b5 31 e8 3c 60 52 a0 3d
       0.0796221 0.0405023 0.028344015 0.07828212
000050 8c d6 12 3e 0a 15 a1 bd f4 9c e8 3d 32 08 f4 bd
       0.14339656 -0.07865341 0.113580614 -0.11915626
000060 90 f0 98 bd 08 87 cc 3d 9d 75 ca bd 26 c8 dd 3c
       -0.07467759 0.09986693 -0.09885714 0.027072977
000070 db 80 90 bd e0 cf 00 3c 38 5a df 3d f6 c8 08 3e
       -0.07055827 0.007862061 0.1090588 0.1335791
000080 6c 14 81 3d ba ed 2a 3e 44 a7 78 bd 1d e1 24 3e
       0.06302723 0.16692248 -0.060706392 0.16101499
000090 c9 5a a7 3c c0 99 bf 3c 96 e3 20 3e 79 01 c4 3d
       0.020429032 0.023388743 0.15711817 0.095705934
0000a0 64 c2 e3 3d 81 3d eb bd 1e 55 11 3d 17 b7 bf 3d
       0.111210614 -0.1148634 0.035481565 0.093610935
0000b0 03 b2 67 3d 7e b2 e4 bc db 19 30 3d 30 3c 0d bb
       0.05656625 -0.027917143 0.042993408 -0.0021550767
0000c0 0f be 10 be 3a 19 e4 bd 84 b3 71 3d cc c3 27 be
       -0.14135002 -0.11137624 0.05900909 -0.16383284
0000d0 b1 40 05 3e f1 80 5e 3d b0 df e4 bd 9c 26 10 be
       0.13012959 0.054322187 -0.111754775 -0.14077228
0000e0 41 b7 dd bc ec 84 34 3d 36 75 87 3c 31 81 2c bd
       -0.027064921 0.044072077 0.016535383 -0.042115394
0000f0 80 96 09 3d 14 50 a3 bc d2 57 87 bd cd bc 4d 3d
       0.033590794 -0.019935645 -0.06608547 0.050228883
000100 f8 7c 92 be 28 9a 62 bd bf 8f a0 3d 36 19 91 3e
       -0.2861097 -0.055322796 0.078399174 0.28339547
000110 18 95 a0 3e 40 60 52 bd 84 29 4a 3d a7 26 98 bd
       0.3136375 -0.051361322 0.049356 -0.07429247
000120 b1 6f e3 bd 1a 2b 29 3e 19 f5 03 3e e5 52 47 3e
       -0.11105288 0.16520348 0.12886466 0.19465216
000130 3f 5e 8a 3d dd a0 d3 bc a3 0f d6 3d ee 2c 4a be
       0.06756257 -0.025833542 0.10452201 -0.19743702
000140 6f 76 99 bd b5 af a7 bc cc 08 7c 3c 91 c7 1a be
       -0.074932925 -0.020469526 0.015382957 -0.15115191
000150 0b a7 86 3c 1f 17 e3 3c 65 ac 20 3d 5b ed 29 3e
       0.016437074 0.027720986 0.03922691 0.1659445
000160 45 e5 8c bd 4c b1 ee bc 9f 45 4e bd 2d ae 51 bd
       -0.06879667 -0.029137276 -0.050359365 -0.051191498
000170 da 7c 71 3d ce 14 02 be 0f b1 0a be c7 86 8b bc
       0.05895696 -0.12703249 -0.13544105 -0.01703204
000180 14 c6 a1 bd 95 a4 4b bd ee 45 7c bd b5 0b 5a 3d
       -0.078991085 -0.049717505 -0.061590128 0.05323382
000190 26 2c 1a be ec b3 de 3c d3 52 d6 3a bd c0 90 3d
       -0.15055904 0.027185403 0.0016351588 0.07068012
0001a0 52 bf 3c be 94 48 4b be 62 f2 91 3d 83 ac 0b bd
       -0.18432358 -0.19851905 0.07126309 -0.034100067
0001b0 60 aa dc bd 5b 28 72 3c 30 b5 d5 3d 6b 4f c6 bd
       -0.10774684 0.014780129 0.104349494 -0.096831165
0001c0 f3 e4 aa 3d 9f 43 84 3e 40 74 d2 bd ea 0c 5e be
       0.0834445 0.2583284 -0.10276079 -0.21684614
0001d0 d0 ed 51 3d b8 f3 b6 3d b9 e3 10 3e 9e 3a c0 3b
       0.051252186 0.089332044 0.1414937 0.0058663627
0001e0 fc cf 34 3e 50 21 13 ba 5f e9 bc bd 2a 87 c2 bd
       0.17657465 -0.0005612569 -0.092241995 -0.09498437
0001f0 fc 00 60 3d c6 6c 96 3d 64 f5 8b bd ef db 84 3d
       0.05468844 0.07344966 -0.06833914 0.064872615
000200 85 75 d2 bc 61 24 c2 bc bc 19 c3 bd e0 19 c9 bd
       -0.025690803 -0.023698987 -0.09526393 -0.098193884
000210 94 51 04 3d 28 35 91 bd 67 f2 d6 3d ca 87 6e bd
       0.03230436 -0.07090217 0.10495453 -0.058234967
000220 f2 1c c2 bd e5 4b 2a 3d 63 84 c5 bd 61 ea 9e bc
       -0.09478177 0.041576285 -0.096443914 -0.01939887
000230 1b fa c1 3c 33 b2 9b 3c 9a c5 2c bc 04 99 f5 3d
       0.02367883 0.01900587 -0.010545159 0.11992076
000240 63 c1 c3 bc 3f 5a 9e bd 46 e7 dd bc cd 52 ae bd
       -0.023895925 -0.07732057 -0.027087819 -0.08511887
000250 60 c4 65 bd 7f 36 60 3d 78 51 fe 3c 2a a6 b8 3b
       -0.05609548 0.05473947 0.031044707 0.0056350427
000260 ad 75 69 bd 9e 29 ef 3c 82 9e 2b be 43 76 f5 3d
       -0.05699699 0.02919465 -0.16759685 0.11985447
000270 b1 b2 72 bd 55 74 67 bd 4f 17 d0 3d ae 7f d4 3d
       -0.059252445 -0.056507427 0.10160696 0.103759155
000280 23 79 e4 bc 1f 59 9b 3c 2f 65 04 3e 99 6b 51 bd
       -0.027889794 0.018963395 0.12929223 -0.051128004
000290 6d c3 eb bd d4 e8 2f 3d f4 c4 8f 3d 92 41 49 3d
       -0.11511884 0.04294665 0.07019988 0.0491348
0002a0 29 a1 bc bc 34 0a 5f bc 07 63 a1 3d e4 d9 6b bd
       -0.023026066 -0.013613272 0.07880216 -0.057580844
0002b0 70 c2 fa bd 8d 83 d2 3d d9 0b e2 bd 3c 7b d6 3c
       -0.12244117 0.102789976 -0.11037416 0.02618181
0002c0 cc e7 ec bd 7f 43 35 bc bc d4 92 3d 1d 21 0e bd
       -0.11567649 -0.011063456 0.07169482 -0.034699548
0002d0 e8 93 e9 3b 97 47 92 bd 50 47 2b be dc 07 ed bd
       0.0071282275 -0.07142561 -0.16726422 -0.11573765
0002e0 98 86 68 bd 9c a1 d9 bc ce da c5 3c 5e ff 8c 3a
       -0.056768984 -0.02656632 0.024152186 0.0010757258
0002f0 ba 64 73 3d 85 7f c7 bd 6f 66 c1 bd a3 36 88 3d
       0.059422232 -0.09741119 -0.09443366 0.06651046
000300 52 b6 01 3e 2d 5a 05 be 20 5c 08 bd c0 1b a1 bd
       0.12667206 -0.1302268 -0.033290982 -0.07866621
000310 04 ef 6f bc 68 e0 9f 3d 03 df ef 3c 74 c0 d7 3d
       -0.014644388 0.07806474 0.029281145 0.105347544
000320 9c 70 0b 3e 72 55 cc bd 08 7a 4f 3d 18 93 71 be
       0.13617176 -0.09977235 0.050653487 -0.23591268
000330 cc 64 ea bd e7 e6 57 bd bf 15 4f 3e b6 24 15 3d
       -0.11445007 -0.05271044 0.20223139 0.036411963
000340 10 7d 78 3e ad 98 d1 bc 50 f4 1f 3e 4a 5b 1c bd
       0.24266458 -0.025585497 0.15620542 -0.038172998
000350 6f b1 39 3e 3a 1c 3d 3d 8a 68 8a 3d ba 2f 27 be
       0.18134092 0.046169497 0.067582205 -0.163268
000360 e6 94 d3 bc 65 38 08 bd 11 7a 2c be 98 b1 28 3e
       -0.025827836 -0.033256907 -0.1684344 0.16473997
000370 54 ce 09 bd fa ae 01 3e 5e 60 c0 3d b2 2c 3e bd
       -0.033644035 0.12664405 0.093933806 -0.046429344
000380 d4 28 c6 3d 94 c4 7f 3e a0 19 ef 3d 9c 7c 44 bd
       0.09675756 0.24977332 0.116748095 -0.0479704
000390 21 77 f0 3d ac 9f c6 bd ce ef 73 3d b2 f7 4c 3c
       0.11741472 -0.09698424 0.059554867 0.012510227
0003a0 e9 fc 83 3a 51 b0 75 3c c8 82 63 3e bd 94 11 be
       0.001006988 0.01499565 0.22217858 -0.14216895
0003b0 ab 17 c0 3d 2c 5f 11 bd 07 34 10 bd a2 ac a0 3d
       0.09379514 -0.035491154 -0.035205867 0.07845427
0003c0 32 f5 9d bd 3f 23 a0 3b 17 b3 63 3e f3 19 0d be
       -0.07712783 0.004887014 0.22236286 -0.1377943
0003d0 ca 7f 31 3d 5a 18 26 3d 2d 67 4a be 34 86 38 be
       0.04333476 0.040550567 -0.19765921 -0.18019944
0003e0 a2 54 03 3d 22 b8 07 be e2 71 49 3d f8 e7 ba be
       0.032063134 -0.13253835 0.049180873 -0.36505103
0003f0 3d e4 2e 3e 84 6f 94 bb 25 3a 2b be 2f 72 dd 3d
       0.17079253 -0.0045298953 -0.16721399 0.108127944

lstm.bias_ih_l1 f4 [256]
000000 6d 67 9b 3d 52 81 23 bd 12 7e 5e 3b 32 f6 40 3e
       0.07588086 -0.03991825 0.0033949655 0.18843916
000010 41 f6 4a bd b9 a6 f4 bc 47 08 7b 3d 1e e2 1e 3e
       -0.049551252 -0.029864656 0.06128719 0.15515944
000020 97 d9 f8 3d f3 d6 9a 3d 90 b9 f5 bd 95 3e 4e 3d
       0.12150877 0.075605296 -0.11998284 0.05035265
000030 cf 2c ac 3d f0 d8 42 bc e2 47 fb bc b7 e6 04 3d
       0.08406984 -0.011892542 -0.030673925 0.03244659
000040 41 c2 7d bd a7 ae 23 3d 3b 42 ce bd ec d6 87 bd
       -0.061952833 0.039961483 -0.10071226 -0.0663279
000050 e8 f6 a1 bd c7 80 d9 bd fc 65 f7 3c f0 44 ab bd
       -0.07908422 -0.106202655 0.030199997 -0.08362758
000060 26 61 a9 bd b2 ee 26 bd 83 2e 90 bd 20 e9 1e 3d
       -0.08270483 -0.04075498 -0.070401214 0.038796544
000070 13 f1 d6 3d b0 58 ac bd 40 94 e2 3d 64 a5 8b bd
       0.104952 -0.08415353 0.11063433 -0.06818655
000080 17 d1 59 bd 45 20 73 bd ab b7 29 bc 9d be aa bd
       -0.05317792 -0.059356946 -0.010358731 -0.08337138
000090 8b 42 b4 bd 5a d3 cb 3d 2f 22 f5 3d bd a9 1b bd
       -0.088017546 0.099524215 0.11969411 -0.038003672
0000a0 76 f2 8c bd e5 d6 69 3d 2d a9 e7 bc cb e9 87 3d
       -0.06882183 0.057089705 -0.028278911 0.06636389
0000b0 e7 69 d3 bc 1e 1d cb bc da 7f 1f 3d 5f e7 61 3e
       -0.025807334 -0.024794158 0.038940288 0.22060917
0000c0 ef 54 eb bd 76 20 94 3d d5 e7 7f bd 39 ac 61 bd
       -0.11490809 0.07232754 -0.06247695 -0.055095885
0000d0 4e 66 12 bd 74 ba 0f 3d bc 38 40 3d a1 5d ed 3d
       -0.035742097 0.035089925 0.046929106 0.11590124
0000e0 b2 d4 c0 3d ee 49 2d 3e 72 71 ae 3c 7d 21 b3 bd
       0.094155684 0.16922733 0.02129433 -0.08746622
0000f0 90 48 93 3d a2 49 af bd e5 5b 89 bd c8 a9 d1 3c
       0.071915746 -0.08558966 -0.067069806 0.025593653
000100 37 44 b0 3d 6e 43 18 bd a8 67 0c 3e ae da a0 3c
       0.08606761 -0.03717368 0.13711417 0.019635525
000110 5f df cd bd a3 38 ba 3d 5e 73 8a 3d fb 92 e7 3d
       -0.1005237 0.09092834 0.06760286 0.11307331
000120 7a cc 0d 3c 48 ca 77 bd fe 83 bf bb ea bd db bd
       0.008654708 -0.060495645 -0.005844592 -0.107295826
000130 83 80 02 bc 17 9e 19 bd de 31 dd ba 79 3a c3 bd
       -0.00796521 -0.03750428 -0.0016875823 -0.09532637
000140 e0 72 27 3c 9c d6 2e bc ae 06 04 3b 95 46 ef bd
       0.010220259 -0.010671284 0.0020145583 -0.11683384
000150 9e 09 95 3b 29 e7 f0 bd 21 dc cc 3d 71 a2 9c bd
       0.0045482656 -0.1176284 0.10002924 -0.07648171
000160 eb 56 b4 3d 94 fa f1 bc d7 63 b8 bd 7b 84 b7 3d
       0.08805641 -0.02953843 -0.09003418 0.089608155
000170 2e c1 b1 bc 31 ec 8a 3d d6 2d 84 3d 80 8d cb 3c
       -0.02169856 0.06783331 0.06454055 0.024847746
000180 66 df 8a 3d 82 d5 be bc ed f5 a4 3d 76 11 13 bd
       0.06780891 -0.023295168 0.08054719 -0.035905324
000190 a2 6a 7b 3d 89 d2 2e 3c c7 73 62 3d 63 30 ef 3d
       0.06138099 0.010670313 0.055286195 0.11679151
0001a0 c7 b3 4a bc 5f 1b a0 bd a7 f9 49 3d b9 46 9f bd
       -0.012371964 -0.078177206 0.049310353 -0.07777161
0001b0 d0 3b cc 3d 45 b2 95 3d 29 1d eb bd 2b 59 1f 3d
       0.09972346 0.07309393 -0.11480171 0.038903397
0001c0 ab e3 c4 bd 25 0b 53 bd ab d6 11 bd 4c 8b f3 bb
       -0.09613737 -0.0515243 -0.035605114 -0.007432377
0001d0 f6 8a aa 3d 05 fe 34 3d f1 aa 61 bd 9f 2a 04 be
       0.08327286 0.044187564 -0.055094663 -0.12906884
0001e0 a6 d0 2b 3d 67 72 25 bd 53 29 ea bc b3 d1 14 be
       0.04194703 -0.040392306 -0.028584158 -0.14533119
0001f0 1e 88 c7 3d 1b 7a 54 3d 67 5b 07 be c6 c9 a4 3d
       0.09742759 0.05187426 -0.13218461 0.08046298
000200 45 3a 31 3d 63 15 96 3d 45 d7 d0 bd b0 12 d5 bd
       0.04326846 0.07328298 -0.101973094 -0.10403955
000210 4a 3b da 3d e2 00 ea bc a2 75 f5 bd 8e ba 13 bc
       0.1065584 -0.028564874 -0.11985327 -0.009016646
000220 da 29 69 bd d3 4a dd bd e9 98 c5 bc d3 8f 25 bd
       -0.05692468 -0.10805287 -0.024120765 -0.040420365
000230 98 eb 95 3d a8 60 dc 3d ea a1 d5 bd d5 c0 cf bd
       0.073203266 0.10760623 -0.10431273 -0.10144202
000240 8c 90 b6 bd 25 15 cc bd 60 8f dc 3d 34 9c 6e 3c
       -0.08914289 -0.099649705 0.10769534 0.014563609
000250 f2 e6 f0 3d 18 f5 fa bd 15 27 5b bd cc 13 76 bc
       0.11762799 -0.12253779 -0.05350407 -0.015019368
000260 ea ea d9 3c 11 b5 de bc 55 e1 c5 3d 93 48 ba 3d
       0.026601274 -0.027185949 0.09662119 0.09095874
000270 7e c7 44 3d d3 30 b6 3d 0c b1 ef 3d b2 b2 fc bc
       0.048041813 0.08896031 0.11703691 -0.030846927
000280 89 05 06 bd 5d f6 af 3d 99 34 0e bd 43 dd 91 3d
       -0.032720122 0.08591912 -0.03471813 0.071222804
000290 f9 97 f0 3d 53 53 9e bc 6f f1 b2 bb b2 a5 61 3d
       0.117477365 -0.019326841 -0.00546091 0.05508966
0002a0 5a e4 1b 3d 34 bb c3 3d 0d 8e be 3d ea 9e 89 bc
       0.03805957 0.095571905 0.09304438 -0.016799409
0002b0 b5 e5 7e 3d 95 9d 7c 3d c5 6b 72 bd 34 98 18 3d
       0.062230784 0.06167372 -0.05918481 0.037254527
0002c0 9c a9 47 bd 3e 4f e2 3d 1d 11 a1 3d b9 6b 9f bd
       -0.048745736 0.110502705 0.07864592 -0.07784218
0002d0 47 a5 8d 3d 15 9c 94 3d f6 bc 9e 3d c4 d9 e2 3b
       0.0691629 0.07256333 0.07750885 0.0069229323
0002e0 cc f4 91 bd 9f 9a 97 bd 30 08 02 3e 6c 0c 87 ba
       -0.071267694 -0.074025385 0.12698436 -0.0010303385
0002f0 59 a4 e8 3d 48 52 72 3b 7f 40 b7 3d 59 48 5e 3d
       0.11359472 0.0036975313 0.089478485 0.054268215
000300 07 1d 33 3e 56 e1 1b be b8 f8 41 3d 86 54 a2 3d
       0.17491542 -0.15222678 0.047356337 0.07926278
000310 6a c3 b2 3d 49 28 ee 3d e2 71 e9 bd 31 91 ed 3d
       0.087286785 0.116287775 -0.113986745 0.11599959
000320 ae 50 22 bd d9 9f 21 3d 71 14 97 3d 3e 6d b8 bd
       -0.039627723 0.039459083 0.07376946 -0.09005211
000330 b7 12 40 bd 51 5b 4e bd ea 11 be bd ab 2e 9d 3d
       -0.046892848 -0.050380055 -0.092807606 0.07674917
000340 09 13 24 bd 8b 52 9a bd ff 30 c7 3d 6a ef 2d bc
       -0.040057216 -0.07535275 0.09726142 -0.010616163
000350 42 da c5 3d 04 58 c5 3d b7 8d a1 bd cf bc 46 3d
       0.0966077 0.09635928 -0.07888358 0.048519906
000360 dd 38 ef bd cd d9 10 3d ee 20 cc 3d 04 2b c9 3c
       -0.11680768 0.03536396 0.09967218 0.024556644
000370 3f 60 67 bd 4f 97 79 bd dc 76 4b bd 52 fb eb 3d
       -0.05648827 -0.060935315 -0.0496739 0.11522545
000380 70 c4 54 3d 3e 8a dc bd 91 d8 74 bd 43 4d eb 3b
       0.05194515 -0.10768555 -0.059776846 0.007180841
000390 67 85 f3 bd ff 57 3e 3d 76 ff 5d 3c 39 3c 1b bd
       -0.11890679 0.04647064 0.013549676 -0.03789923
0003a0 b0 ba 8a 3d f3 f8 c3 3d 07 03 07 bd db b7 9a bb
       0.06773889 0.09568968 -0.03296187 -0.0047216243
0003b0 39 6a 86 3d 3b 69 17 bd 25 18 ed 3d 62 ad 13 3d
       0.06563229 -0.03696559 0.11576871 0.036054023
0003c0 98 1c 03 bd 3b 45 7c 3d f9 ff eb bd fe 01 48 bd
       -0.03200969 0.06158946 -0.11523432 -0.048830025
0003d0 2e 6e 92 3c fb 91 ed bd ec 65 90 3d 4c cf c8 3d
       0.017874803 -0.11600109 0.0705069 0.09805164
0003e0 dc c3 13 bc 63 4c 15 3d 36 14 32 bd 1d 72 0b 3c
       -0.0090188645 0.0364498 -0.043476306 0.008511093
0003f0 ac 33 c0 bc d1 75 ae 3b 59 5b e1 bb f6 67 c3 3d
       -0.02346214 0.0053241034 -0.0068773446 0.09541313
