output/lstm_tcn_forecaster_b7_m1.pth (torch, 719547 bytes, 38 tensors)

lstm.weight_ih_l0 f4 [256, 60]
0.1052086 0.037691887 0.11036759 0.106879 0.18633343 -0.021917038 0.0041720374 -0.05804929
0.13392428 0.014951813 -0.0812079 0.24606603 0.08034494 0.1620614 0.07166551 0.09317759
0.06618026 -0.045340575 0.14208764 0.012704166 0.081069775 0.11452151 -0.06243254 0.09191316
0.035039116 0.047842786 -0.00763176 0.10201857 -0.051950596 0.0561103 -0.016197406 0.18595248
-0.07421364 0.1089827 0.1318522 -0.04141421 -0.039110832 0.11414667 0.17446904 -0.073805206
0.15172525 0.124069706 0.11787072 -0.03636033 -0.048112158 0.062499814 0.07212224 0.09806497
0.151309 0.18211672 0.09902101 -0.08588748 0.15044719 -0.094934225 0.058119632 -0.0076619973
-0.057699524 0.073150985 0.04984695 0.031015964 -0.03851267 -0.017776843 0.13689229 0.05204589
-0.06899016 0.044249307 0.026489593 0.013697685 0.06901447 0.058401022 0.06801972 0.12365298
0.039088614 0.10402378 0.1100794 -0.093383044 -0.0060222656 0.08652484 -0.030917212 0.07922256
0.02837704 0.07035411 0.11266095 0.08234081 -0.026272632 0.02707254 0.031873427 0.160903
0.02475085 0.0140331965 -0.06090584 -0.10365492 -0.027655646 -0.105090186 0.015706455 -0.089576684
0.020088034 0.15978667 0.0050592236 -0.031019647 -0.039238535 0.17191765 -0.094231464 -0.043660525
-0.047479205 -0.06838315 -0.033816 -0.027954768 -0.027015816 0.13123277 0.11954382 -0.052831803
-0.035554316 -0.045201372 0.0010489395 -0.029940741 -0.068552084 0.0743838 0.09730858 0.14702244
0.046849973 0.0076136403 0.10591327 -0.020992441 0.069863044 -0.03652613 0.021481711 0.10855939
0.10460513 -0.046970848 -0.06066884 0.007774641 0.04055062 0.0031134551 0.1427425 -0.042292885
0.010457515 -0.06339343 0.032858346 -0.09835683 0.071599826 0.082794085 -0.08824847 -0.12736714
0.01579598 0.030402245 -0.065798834 -0.06016491 -0.10257739 0.07377302 -0.032455612 0.15930721
-0.0425621 0.100615665 0.05107224 0.11203161 -0.0119162025 0.22946458 -0.033016734 -0.09102003
0.10254397 0.271653 0.07481584 0.044889495 0.035873856 -0.06943862 0.0039510434 -0.07515511
-0.050497025 0.044151258 -0.0038642453 0.022774259 -0.0029673125 0.13236958 -0.11448896 0.05767264
-0.008522619 0.08391517 -0.04599656 0.18715651 0.0023677743 -0.08044256 0.0035615948 -0.04035413
0.24411373 0.049083777 0.14519358 -0.013337186 0.13704488 0.12938222 -0.07902156 0.09745098
-0.044807654 -0.041622087 0.03532319 0.0785897 0.028037049 -0.057698205 -0.06974224 0.13230316
0.024794435 0.00806936 -0.031804904 0.0534732 -0.051716216 0.081186704 0.006759242 -0.102384746
0.11660554 0.039219286 -0.026979873 0.03205623 0.093033426 -0.07493327 -0.03199657 0.10564023
-0.022959597 -0.049053803 -0.064135164 -0.014736109 -0.040179927 0.19720194 -0.08549244 0.0039884313
0.009569078 0.13455649 0.019072829 0.16204517 -0.08726107 0.10884556 -0.06034185 0.041238267
0.010650306 0.14986743 0.087179236 0.015238207 -0.10437052 0.123480126 -0.012211544 -0.07079709
0.025124414 0.016679112 -0.09115882 -0.06331702 -0.05998878 0.028872136 -0.046822686 0.0033387532
0.0110740075 -0.09083951 0.032809272 0.10641722 -0.10720127 -0.078697495 -0.116869584 -0.05789951
00000000: 9b77 d73d cf62 1a3d 6708 e23d 61e3 da3d
00000010: 31ce 3e3e 5c8b b3bc 96b5 883b 18c5 6dbd
00000020: 7223 093e 73f8 743c 5450 a6bd bcf8 7b3e
00000030: e38b a43d 6cf3 253e 5ec5 923d e4d3 be3d
00000040: 8489 873d 0ab7 39bd 6c7f 113e 2225 503c
00000050: e907 a63d 418a ea3d 43b9 7fbd f83c bc3d
00000060: 2d85 0f3d ccf6 433d d813 fabb 1def d03d
00000070: 26ca 54bd ead3 653d 6cb0 84bc 546a 3e3e
00000080: 52fd 97bd 5232 df3d 4304 073e f2a1 29bd
00000090: ae32 20bd bbc5 e93d 03a8 323e 2f27 97bd
000000a0: dd5d 1b3e 4218 fe3d 3466 f13d 92ee 14bd
000000b0: 4111 45bd ceff 7f3d d3b4 933d 49d6 c83d
000000c0: bff0 1a3e ce7c 3a3e 87cb ca3d c6e5 afbd
000000d0: d40e 1a3e e06c c2bd da0e 6e3d 7e11 fbbb
000000e0: 5656 6cbd 2fd0 953d 512c 4c3d 3115 fe3c
000000f0: 76bf 1dbd bea0 91bc 7e2d 0c3e 122e 553d
00000100: b74a 8dbd c33e 353d b400 d93c 416c 603c
00000110: 7557 8d3d e935 6f3d ec4d 8b3d c63d fd3d
00000120: 621b 203d 6b0a d53d 4f71 e13d 9c3f bfbd
00000130: 6d56 c5bb ef33 b13d 1846 fdbc 703f a23d
00000140: f776 e83c d115 903d c9ba e63d 4ca2 a83d
00000150: b439 d7bc 3bc7 dd3c b68d 023d c2c3 243e
00000160: 4bc2 ca3c 7eeb 653c 6778 79bd 0849 d4bd
00000170: 188e e2bc 8639 d7bd d3aa 803c fb73 b7bd
00000180: a98f a43c 1e9f 233e d8c7 a53b ea1c febc
00000190: 96b8 20bd 2e0b 303e 6dfc c0bd 61d5 32bd
000001a0: 8e79 42bd 770c 8cbd a582 0abd 6601 e5bc
000001b0: 4650 ddbc e261 063e 64d3 f43d 2966 58bd
000001c0: 67a1 11bd 1325 39bd 927c 893a 4946 f5bc
000001d0: 0965 8cbd 8956 983d b949 c73d 0d8d 163e
000001e0: c2e5 3f3d d87b f93b 0ee9 d83d 57f8 abbc
000001f0: 5b14 8f3d 6c9c 15bd 6afa af3c 6354 de3d
00000200: 373b d63d 8164 40bd e47f 78bd 6ac2 fe3b
00000210: 6818 263d 1c0b 4c3b 172b 123e 4e3b 2dbd
00000220: ff55 2b3c 6ad4 81bd 7996 063d 4e6f c9bd
00000230: eea2 923d f28f a93d 9dbb b4bd 886c 02be
00000240: 9266 813c 210e f93c 8ac1 86bd 7b6f 76bd
00000250: 1814 d2bd 4f16 973d 2df0 04bd 6e21 233e
00000260: 9955 2ebd 960f ce3d 2031 513d d470 e53d
00000270: 2d3c 43bc c3f8 6a3e 8e3c 07bd b668 babd
00000280: 9302 d23d 1a16 8b3e 0c39 993d 0cde 373d
00000290: 77f0 123d d635 8ebd c177 813b ecea 99bd
000002a0: f8d5 4ebd f3d7 343d 473f 7dbb 1591 ba3c
000002b0: 3e77 42bb e48b 073e 3079 eabd 253a 6c3d
000002c0: 74a2 0bbc b7db ab3d e466 3cbd f5a5 3f3e
000002d0: a92c 1b3b 12bf a4bd a569 693b 5f4a 25bd
000002e0: f3f8 793e 120c 493d a0ad 143e 3684 5abc
000002f0: 7e55 0c3e c67c 043e 0ed6 a1bd 6194 c73d
00000300: 3b88 37bd ec7b 2abd 0daf 103d a3f3 a03d
00000310: f4ad e53c f454 6cbd 05d5 8ebd 7b7a 073e
00000320: b31d cb3c 5935 043c dc45 02bd b706 5b3d
00000330: 62d4 53bd 3745 a63d a27c dd3b 18af d1bd
00000340: e3ce ee3d 67a4 203d e504 ddbc 654d 033d
00000350: 4f88 be3d 9d76 99bd d60e 03bd e859 d83d
00000360: c415 bcbc a4ec 48bd 4c59 83bd b96f 71bc
00000370: b593 24bd 4eef 493e a916 afbd 63b1 823b
00000380: 9fc7 1c3c 2dc9 093e 9f3e 9c3c 2bef 253e
00000390: efb5 b2bd 6cea de3d 0429 77bd 75e9 283d
000003a0: 9f7e 2e3c d976 193e 078b b23d aca9 793c
000003b0: 36c0 d5bd 26e3 fc3d ee12 48bc 11fe 90bd
000003c0: b7d1 cd3c a2a2 883c 7ab1 babd 5bac 81bd
000003d0: ccb6 75bd 4285 ec3c 25c9 3fbd fcce 5a3b
000003e0: c16f 353c 110a babd 0463 063d 45f1 d93d
000003f0: 578c dbbd 272c a1bd 5259 efbd 0928 6dbd

lstm.weight_hh_l0 f4 [256, 64]
-0.051865246 0.10416159 0.08381056 -0.09445887 0.024988864 0.013602468 0.00901284 0.06489906
0.11112859 -0.06802993 -0.007595572 -0.015490291 -0.028115181 -0.091760874 -0.002713335 0.08045526
0.08692443 0.1124398 -0.049334418 -0.04937009 -0.13726431 -0.14547768 -0.08944906 -0.058460075
-0.045843136 -0.1578068 0.09996911 -0.17293628 -0.011727146 0.056877077 0.10809497 0.026913425
-0.072684325 -0.023772819 0.0859476 0.035922337 0.1726109 0.013075266 0.109240375 -0.039541844
-0.13349663 -0.075123005 -0.060632955 0.08887724 -0.0775441 -0.0011173206 -0.0055516283 0.031093651
-0.09146447 -0.02312456 -0.04726683 -0.010561398 0.07879132 -0.052102864 0.1083445 -0.060687963
-0.022331791 0.0020175553 -0.09433482 0.056741428 -0.057920482 -0.08495077 -0.018722074 0.1006767
-0.09270059 -0.048000135 -0.17347147 0.006785157 0.005643815 -0.025928503 0.04832065 -0.03575197
-0.013081885 -0.12660204 0.013546934 -0.044043448 -0.12338715 -0.034372553 -0.10794362 0.119360626
-0.054640174 0.18519844 0.13991429 -0.11732745 0.03574419 -0.00856548 -0.06558308 0.11337896
0.0054263235 0.04210294 0.004556677 0.06062575 0.023319647 -0.026713805 -0.038953397 -0.0018884022
0.0050519044 -0.05383618 0.06853405 0.07790212 0.036599673 0.14238031 -0.084076226 0.13000852
0.034175973 0.039497554 -0.07383965 -0.08143653 -0.011538537 -0.020710487 -0.07483894 0.098687984
0.08563663 -0.05691128 -0.019129148 0.0082145035 -0.08337672 -0.11686229 0.07436514 -0.099024266
-0.102431886 -0.027575273 0.051530477 0.06705171 0.13237324 -0.003765352 0.027160916 0.14673366
-0.01112899 0.04317727 -0.054328497 0.16191883 -0.08295506 -0.06492145 0.041845106 -0.06882675
0.11745454 -0.00613369 -0.14093748 -0.119660035 -0.07810428 -0.13474734 -0.034049924 -0.06899821
0.07287153 0.0369509 -0.020173246 -0.04779342 0.002754446 0.10955342 0.016384013 0.108676665
-0.010983488 0.062078454 0.061195392 0.012196284 -0.063422665 -0.18537821 0.0038709166 0.15085386
0.05261568 0.121171705 0.02119427 0.0030158844 -0.047111083 -0.051930275 0.13036117 -0.033115104
0.10130976 -0.00022879936 -0.124364614 -0.03883372 0.05008796 -0.03726177 0.03489758 0.1231431
0.04208766 0.052694887 -0.046973113 -0.035932515 -0.11360093 -0.04953683 0.06322222 0.15598522
0.10261403 -0.10264319 0.058202606 -0.103037834 0.029346885 0.046527877 0.093884476 0.019147484
0.07758344 0.076628916 0.09027557 -0.0017565466 0.062513016 0.13804609 0.042151336 -0.028725255
0.044322025 -0.05111752 0.042928085 -0.07663363 0.12957194 -0.010376418 0.073914096 0.057895273
0.12154367 -0.027878877 0.052280266 -0.13173704 0.034385506 0.056823395 0.0181955 -0.036091734
0.058571134 0.028069863 -0.058892 0.0611878 0.023960717 0.04010398 -0.007544799 0.11445344
0.012330364 -0.061308507 0.041665476 -0.05620979 -0.06708557 0.13279442 0.06380126 -0.1112183
0.07765814 -0.18818052 -0.1074224 -0.08152919 -0.015487055 -0.0861832 0.0693439 -0.0322038
0.08416863 -0.010496484 0.11580451 0.119271785 0.074083224 0.04717316 -0.10817627 0.05328121
0.030660028 -0.020988163 0.066697426 -0.08708219 -0.0066189775 0.053450555 0.010593636 0.19107686
00000000: a770 54bd ac52 d53d dfa4 ab3d a773 c1bd
00000010: 72b5 cc3c e3dc 5e3c 97aa 133c cce9 843d
00000020: 6397 e33d 4753 8bbd 47e4 f8bb fdca 7dbc
00000030: cf51 e6bc 20ed bbbd 35d2 31bb bac5 a43d
00000040: 7005 b23d d646 e63d e312 4abd 4b38 4abd
00000050: 048f 0cbe 1af8 14be 1231 b7bd d573 6fbd
00000060: 03c6 3bbd 1b98 21be 9bbc cc3d 3516 31be
00000070: 3723 40bc f0f7 683d e560 dd3d 8b79 dc3c
00000080: 85db 94bd 37bf c2bc 4c05 b03d 4d23 133d
00000090: e9c0 303e a439 563c 6bb9 df3d a1f6 21bd
000000a0: 57b3 08be 17da 99bd 435a 78bd 4505 b63d
000000b0: 71cf 9ebd 0f73 92ba 6fea b5bb 1db8 fe3c
000000c0: b951 bbbd b86f bdbc dd9a 41bd b709 2dbc
000000d0: 585d a13d d069 55bd b9e3 dd3d f193 78bd
000000e0: 29f1 b6bc f638 043b 9d32 c1bd b369 683d
000000f0: 073e 6dbd abfa adbd 095f 99bc 962f ce3d
00000100: cfd9 bdbd ca9b 44bd 81a2 31be 0656 de3b
00000110: c0ef b83b 0368 d4bc e0eb 453d a870 12bd
00000120: 6755 56bc f7a3 01be f6f3 5d3c e766 34bd
00000130: 67b2 fcbd 3cca 0cbd 8b11 ddbd 5873 f43d
00000140: 60ce 5fbd a9a4 3d3e b145 0f3e 6049 f0bd
00000150: 8068 123d 3a56 0cbc 6c50 86bd 3a33 e83d
00000160: 4dcf b13b 2274 2c3d 2d50 953b b552 783d
00000170: d808 bf3c e9d6 dabc 998d 1fbd 4384 f7ba
00000180: 728a a53b 5483 5cbd 945b 8c3d 268b 9f3d
00000190: 8ae9 153d 25cc 113e 2830 acbd f420 053e
000001a0: 1bfc 0b3d 30c8 213d 3e39 97bd 32c8 a6bd
000001b0: 220c 3dbc 0aa9 a9bc 2845 99bd ed1c ca3d
000001c0: 4262 af3d cd1b 69bd bbb4 9cbc 2096 063c
000001d0: 6ac1 aabd 7f55 efbd c04c 983d 3ccd cabd
000001e0: cfc7 d1bd 8ae5 e1bc 9f11 533d 6852 893d
000001f0: da8c 073e 20c4 76bb 9280 de3c 5941 163e
00000200: 5e56 36bc a6da 303d 8f87 5ebd 0dce 253e
00000210: 58e4 a9bd 8af5 84bd c665 2b3d 0af5 8cbd
00000220: 028c f03d 1ffd c8bb ea51 10be 5210 f5bd
00000230: 23f5 9fbd 35fb 09be ef77 0bbd ef4e 8dbd
00000240: ab3d 953d d459 173d 5d42 a5bc 08c3 43bd
00000250: ef83 343b 8b5d e03d c437 863c df91 de3d
00000260: 16f4 33bc fa45 7e3d 05a8 7a3d ecd2 473c
00000270: bee3 81bd c9d3 3dbe 34af 7d3b 6f79 1a3e
00000280: 8a83 573d df28 f83d 9b9f ad3c 25a6 453b
00000290: 8df7 40bd d7b4 54bd 667d 053e b4a3 07bd
000002a0: 7e7b cf3d dce9 6fb9 e0b2 febd 1b10 1fbd
000002b0: 0829 4d3d cc9f 18bd c4f0 0e3d 7332 fc3d
000002c0: 1c64 2c3d 98d6 573d e166 40bd f92d 13bd
000002d0: 9ba7 e8bd 22e7 4abd a77a 813d 97ba 1f3e
000002e0: 4e27 d23d 9836 d2bd db65 6e3d 8005 d3bd
000002f0: e168 f03c 0494 3e3d 8146 c03d 2fdb 9c3c
00000300: 11e4 9e3d 9fef 9c3d 66e2 b83d ec3b e6ba
00000310: d306 803d f45b 0d3e e1a6 2c3d 3a51 ebbc
00000320: 038b 353d 9b60 51bd 5cd5 2f3d 18f2 9cbd
00000330: 82ae 043e da01 2abc 4660 973d 9823 6d3d
00000340: e3eb f83d 3e62 e4bc d523 563d 13e6 06be
00000350: d1d7 0c3d a6bf 683d bb0e 953c edd4 13bd
00000360: 49e8 6f3d c5f2 e53c bd38 71bd 0fa0 7a3d
00000370: 4449 c43c 1244 243d 5c3a f7bb 9166 ea3d
00000380: 4c05 4a3c a11e 7bbd 6ba9 2a3d 3d3c 66bd
00000390: 2964 89bd 43fb 073e 3caa 823d 6cc6 e3bd
000003a0: 3b0b 9f3d 65b2 40be 4600 dcbd c7f8 a6bd
000003b0: 6bbd 7dbc d180 b0bd 2d04 8e3d 22e8 03bd
000003c0: 9a60 ac3d 72f9 2bbc ea2a ed3d c444 f43d
000003d0: f2b8 973d a538 413d 858b ddbd 663d 5a3d
000003e0: bd2a fb3c 5eef abbc a998 883d 2658 b2bd
000003f0: 02e4 d8bb f8ee 5a3d ee90 2d3c a7a9 433e

lstm.bias_ih_l0 f4 [256]
0.101950906 -0.033548698 -0.088146485 0.09528826 0.036128353 -0.011208078 0.10880108 0.012127599
0.035816845 0.027248057 -0.11582773 -0.041380025 0.028543122 -0.07593526 0.14574488 -0.04292644
-0.01225613 -0.09119519 0.11502886 -0.056614343 -0.0036708238 -0.051686022 0.038296033 -0.013027495
0.107616104 0.032644328 0.006249096 0.0967501 -0.023431549 0.016048206 0.11542522 -0.07746619
-0.076634586 -0.05203017 0.012227412 -0.10297176 -0.031018604 -0.05774216 0.002861542 0.020325007
0.029209774 -0.058583055 0.084268115 0.073787145 0.055409692 -0.048300646 -0.06550717 -0.117387466
-0.04667911 -0.0031096875 -0.10443832 0.1477193 0.033340298 0.010363489 -0.0652961 -0.06432541
-0.09028887 0.0710821 -0.045669816 -0.051455922 -0.017191242 0.050841097 0.16562805 0.09861853
0.029287402 0.090934366 0.045501 0.06877894 0.0095585985 0.08320166 0.07758363 -0.048110995
-0.10368676 0.119213365 -0.035017785 0.03564653 -0.02751243 -0.07971697 0.07962252 0.11038536
0.032501306 -0.050655797 -0.002608376 0.0567328 0.055960074 0.062188625 -0.030413423 0.035830252
0.13303716 -0.07879389 0.046253335 -0.009608513 0.115326345 -0.100093275 -0.01365721 0.12419625
-0.087515675 0.07079717 -0.070037365 0.067976326 0.047414772 -0.039004907 -0.06271181 0.09160872
-0.044341058 0.055539694 0.04059773 0.11422922 -0.0878872 -0.06377833 0.014732444 -0.02507738
0.101918735 -0.09318171 0.05064272 0.00761323 0.15304384 0.02650395 0.0688977 0.09988642
-0.051815756 0.0074096615 0.018922126 -0.07238722 0.08255108 -0.027886583 0.061790027 0.061668303
-0.09050404 -0.016858777 0.041610517 0.0011082721 -0.08308912 0.08373216 -0.01837702 0.021925142
-0.066127434 -0.13715325 -0.07960549 0.017556274 0.010101404 -0.029362243 -0.02143985 -0.09936638
0.03296699 0.041781 0.06683963 -0.054838136 -0.00056086323 0.10701548 0.029622186 -0.05696689
-0.06314348 0.05609235 0.09687607 -0.048178658 -0.03917966 0.0740794 -0.11949495 -0.12113102
-0.11324374 0.019036952 0.08410124 0.010142193 0.006550973 -0.10300974 -0.10729115 0.100496486
-0.052139644 0.027944956 -0.06434879 -0.007529616 0.011263274 -0.057533477 -0.014031145 -0.026299648
-0.11389228 0.08623287 0.010173067 -0.07533157 0.034942053 -0.081409566 -0.034802895 0.0049041696
-0.04064989 0.046780203 0.09987363 -0.016174732 0.0340147 -0.052907377 0.03346837 -0.11130882
0.07820751 0.05193775 -0.051060706 0.011982806 0.01970108 0.024698917 0.041191958 0.08274563
-0.061557412 0.102037676 0.06907043 0.1451763 -0.031776752 -0.06458687 0.014005526 -0.06348948
0.050123073 -0.100632235 0.14703913 0.0007663477 -0.033798184 -0.04836129 0.110579215 0.086902775
0.04131105 -0.022825198 0.110751376 -0.09577043 -0.03323542 -0.07601067 -0.06824965 0.06496345
0.018326804 -0.029985081 0.007441933 0.04994432 0.040752914 0.12269247 -0.01397862 -0.021958627
0.11674399 0.048598956 0.011471252 -0.01675248 -0.012656378 -0.12676406 0.054177288 -0.06892712
-0.07843686 0.04390888 -0.016679462 -0.0068317587 0.09229649 0.013313934 0.0026650834 0.10323007
0.060150888 -0.06668185 -0.031171627 -0.10216457 -0.10559534 0.030050328 -0.061648864 -0.07248909
00000000: a3cb d03d 5c6a 09bd 2586 b4bd 7e26 c33d
00000010: 53fb 133d 16a2 37bc 1ad3 de3d d6b2 463c
00000020: afb4 123d 5137 df3c 1737 edbd 1a7e 29bd
00000030: 44d3 e93c f283 9bbd 253e 153e a2d3 2fbd
00000040: efcd 48bc 8bc4 babd 4094 eb3d 71e4 67bd
00000050: 3492 70bb b9b4 53bd 4ddc 1c3d 4671 55bc
00000060: d565 dc3d 0fb6 053d 37c5 cc3b eb24 c63d
00000070: 85f3 bfbc 8777 833c 0f64 ec3d 98a6 9ebd
00000080: 98f2 9cbd 961d 55bd 7c55 483c dce2 d2bd
00000090: ba1a febc 0b83 6cbd b588 3b3b a180 a63c
000000a0: 5649 ef3c c9f4 6fbd c394 ac3d b71d 973d
000000b0: 46f5 623d e6d6 45bd a028 86bd d768 f0bd
000000c0: 9832 3fbd e6cb 4bbb c2e3 d5bd ba43 173e
000000d0: d68f 083d a0cb 293c f6b9 85bd 0abd 83bd
000000e0: 5fe9 b8bd 7e93 913d 4610 3bbd 72c3 52bd
000000f0: a6d4 8cbc c13e 503d 669a 293e 83f8 c93d
00000100: 22ec ef3c cc3b ba3d 425f 3a3d f9db 8c3d
00000110: ab9b 1c3c a265 aa3d 2be4 9e3d 0910 45bd
00000120: b959 d4bd 2326 f43d cf6e 0fbd 1902 123d
00000130: bf61 e1bc a742 a3bd 2211 a33d b811 e23d
00000140: 1720 053d 747c 4fbd 4af1 2abb a760 683d
00000150: 6436 653d 80b9 7e3d 9225 f9bc bec2 123d
00000160: e53a 083e b15e a1bd 2374 3d3d 066d 1dbc
00000170: 3830 ec3d b4fd ccbd 7ec2 5fbc 9b5a fe3d
00000180: 6b3b b3bd 1bfe 903d c06f 8fbd 2c37 8b3d
00000190: fe35 423d 9cc3 1fbd 0d6f 80bd 5a9d bb3d
000001a0: f89e 35bd 977d 633d ce49 263d 02f1 e93d
000001b0: 34fe b3bd 379e 82bd 5960 713c 146f cdbc
000001c0: c5ba d03d 0dd6 bebd be6e 4f3d 6778 f93b
000001d0: 86b7 1c3e d01e d93c 3d1a 8d3d 4091 cc3d
000001e0: c23c 54bd bfcc f23b 9302 9b3c c03f 94bd
000001f0: 8a10 a93d 6772 e4bc 8a17 7d3d e797 7c3d
00000200: 2f5a b9bd 6b1b 8abc ca6f 2a3d 7143 913a
00000210: a12a aabd c47b ab3d 678b 96bc 5b9c b33c
00000220: d26d 87bd e771 0cbe 3408 a3bd 2dd2 8f3c
00000230: 5c80 253c 1689 f0bc a0a2 afbc 9a80 cbbd
00000240: 6508 073d 8e22 2b3d 37e3 883d f49d 60bd
00000250: e506 13ba ef2a db3d 3aaa f23c 1d56 69bd
00000260: 5e51 81bd 18c1 653d f666 c63d fc56 45bd
00000270: da7a 20bd f1b6 973d c5b9 f4bd 8a13 f8bd
00000280: 55ec e7bd 62f3 9b3c 453d ac3d 712b 263c
00000290: 8ba9 d63b c5f6 d2bd 76bb dbbd 1ad1 cd3d
000002a0: 6190 55bd d2ec e43c 4cc9 83bd ffba f6bb
000002b0: 9889 383c 39a8 6bbd e3e2 65bc 5c72 d7bc
000002c0: 5b40 e9bd dc9a b03d f0ac 263c 7047 9abd
000002d0: 661f 0f3d 0fba a6bd 7b8d 0ebd 28b3 a03b
000002e0: 8080 26bd 999c 3f3d 8c8a cc3d df80 84bc
000002f0: 0053 0b3d 68b5 58bd 2116 093d e1f5 e3bd
00000300: 422b a03d aebc 543d 0825 51bd 8853 443c
00000310: 2964 a13c 6255 ca3c e6b8 283d 8a76 a93d
00000320: a023 7cbd 21f9 d03d cc74 8d3d 19a9 143e
00000330: 5728 02bd 1f46 84bd 6f77 653c c606 82bd
00000340: da4d 4d3d 4618 cebd 6d91 163e b9e4 483a
00000350: f76f 0abd 7d16 46bd 5b77 e23d 15fa b13d
00000360: c735 293d e9fb babc 9ed1 e23d 4a23 c4bd
00000370: dd21 08bd 7bab 9bbd 79c6 8bbd 8f0b 853d
00000380: 1822 963c 46a3 f5bc 75db f33b 6a92 4c3d
00000390: 87ec 263d 3146 fb3d 9506 65bc 94e2 b3bc
000003a0: 7917 ef3d b30f 473d ebf1 3b3c 7f3c 89bc
000003b0: b25c 4fbc 70ce 01be 01e9 5d3d a929 8dbd
000003c0: 81a3 a0bd ccd9 333d 5ea3 88bc f2dc dfbb
000003d0: f105 bd3d b022 5a3c aea8 2e3b 496a d33d
000003e0: c760 763d 7e90 88bd a45b ffbc a83b d1bd
000003f0: 5f42 d8bd 1b2c f63c 8583 7cbd 2975 94bd

lstm.bias_hh_l0 f4 [256]
0.04002055 0.08130807 0.020246612 -0.084877044 0.03401717 0.03416752 0.12414942 0.05155993
0.115215965 -0.09293271 0.056549735 0.10846329 -0.0041634277 -0.06330646 -0.0405251 0.039574493
0.01742659 0.09702968 0.0038122947 -0.052245285 -0.057902593 0.11233988 0.14496747 0.08109696
-0.07572319 -0.12957491 0.08280436 0.11164252 0.1286114 -0.03474978 0.102926426 -0.00954242
0.073242754 0.052670315 -0.011053276 0.06645231 -0.113206 -0.08914694 -0.017362 -0.055838212
0.00038438913 -0.051033027 0.01717203 0.014666315 0.025961759 0.026341777 -0.011256119 -0.0002442184
0.054942396 -0.015124472 -0.062219687 0.06261418 -0.023690166 -0.07000883 -0.06687193 -0.052453473
0.011617846 -0.0646618 0.1206289 -0.10924223 0.10889384 0.02046106 0.052736457 -0.09151878
-0.010119726 0.09639485 -0.025665306 0.08183981 -0.06223558 0.1302063 -0.052955195 -0.12284824
0.0037893453 -0.0032576865 -0.026738772 0.013380568 -0.097096525 -0.010526612 0.13972908 -0.10923558
0.121729985 0.053664297 0.071412005 0.061951425 0.10286886 0.058601856 -0.018820055 0.006318118
-0.03055929 -0.116789095 0.042743325 -0.0032765004 0.04459767 -0.06841694 -0.07446388 -0.02371762
0.00081351114 0.06300159 -0.10017973 0.014302687 0.11661133 -0.06159964 -0.004112467 0.06912814
0.005446875 0.16287258 0.033135302 -0.057798196 -0.13253345 0.05476489 0.0047168913 0.06538309
0.10808831 -0.013634059 -0.08145549 0.03526753 -0.006770223 -0.001737788 -0.07687177 -0.123515986
-0.044069238 0.025847808 0.020072212 -0.028602129 0.117399886 -0.049630605 0.04382903 -0.0140286265
0.077951856 0.021556182 0.07314299 0.024644736 -0.003909608 -0.030330999 -0.08550997 -0.013153862
0.09270954 0.01118915 -0.0052016336 -0.07464664 -0.09419268 0.007937005 -0.11456951 0.0057567195
0.10538444 0.003045807 0.11539043 0.12136615 -0.10326221 0.06655368 0.04927761 0.017441677
0.10810738 0.03852387 0.069729775 -0.07927623 -0.12113291 0.1225531 -0.007929912 -0.13970408
0.09469373 0.060936864 -0.08575223 0.05035807 -0.00566355 0.07203203 -0.100774884 -0.018165262
0.09685461 -0.12929377 -0.04003818 -0.06779531 -0.10412194 -0.056120086 0.1002676 -0.05350111
-0.086830385 0.05995413 0.051578972 0.032824997 0.081868894 -0.042469926 0.068329446 0.14906919
-0.03835483 -0.044212338 0.07541266 0.09873972 -0.048824742 0.11736745 -0.106428534 0.015322952
0.09764513 -0.032063756 0.106358446 0.1403755 -0.02846895 -0.021600867 0.13964558 0.063589714
-0.08561964 0.124904394 -0.07086672 -0.034108967 0.10721742 -0.014936698 0.10015556 -0.031431027
-0.040517036 -0.025820985 -0.04432584 0.04640751 -0.09877912 -0.099144496 0.07404568 0.008254024
0.052607324 0.11024222 0.11063625 -0.027335066 0.054380946 -0.10490822 0.039320666 0.08348164
0.113566525 -0.06258252 -0.015355809 0.0022930985 -0.09830554 -0.11998257 -0.05631325 0.048704926
-0.026258847 -0.054694857 0.07203501 -0.04825147 -0.06543314 0.06752887 0.010899633 -0.08203088
-0.024824115 0.06391032 0.12636408 0.027237298 -0.0041216016 0.057102345 0.11102575 -0.10985888
0.15003458 -0.013485295 0.12456536 -0.045299318 0.039346784 0.116761535 0.0119454665 -0.024240525
00000000: 97ec 233d d884 a63d 39dc a53c 04d4 adbd
00000010: 9755 0b3d 3ef3 0b3d 0d42 fe3d 8130 533d
00000020: 59f6 eb3d 8153 bebd b2a0 673d 0022 de3d
00000030: 5d6d 88bb d1a6 81bd a6fd 25bd dd18 223d
00000040: 35c2 8e3c 7fb7 c63d b1d7 793b 27ff 55bd
00000050: 452b 6dbd 7312 e63d 5a72 143e 2a16 a63d
00000060: c314 9bbd 49af 04be 5595 a93d d5a4 e43d
00000070: b5b2 033e c955 0ebd 17cb d23d cf57 1cbc
00000080: 4c00 963d d4bc 573d cd18 35bc 2618 883d
00000090: 8cd8 e7bd ac92 b6bd c13a 8ebc 9cb6 64bd
000000a0: d687 c939 0208 51bd 5bac 8c3c fc4a 703c
000000b0: c1ad d43c b6ca d73c 966b 38bc 700a 80b9
000000c0: 470b 613d a2cc 77bc 12da 7ebd dd3b 803d
000000d0: e111 c2bc ca60 8fbd 27f4 88bd 74d9 56bd
000000e0: c758 3e3c 686d 84bd 490c f73d 64ba dfbd
000000f0: bc03 df3d f49d a73c 2f02 583d 336e bbbd
00000100: 35cd 25bc aa6a c53d 0c40 d2bc a19b a73d
00000110: bcea 7ebd cd54 053e 8ce7 58bd dc97 fbbd
00000120: aa56 783b e97e 55bb 450b dbbc 2b3a 5b3c
00000130: 8bda c6bd d077 2cbc 2415 0f3e e7b6 dfbd
00000140: 924d f93d 18cf 5b3d 7540 923d c7c0 7d3d
00000150: e9ac d23d 8008 703d 842c 9abc 3708 cf3b
00000160: 7a57 fabc 1f2f efbd a013 2f3d 8eba 56bb
00000170: 0cac 363d 2e1e 8cbd 8580 98bd 744b c2bc
00000180: cf41 553a fa06 813d 082b cdbd d155 6a3c
00000190: ecd1 ee3d e74f 7cbd e0c1 86bb 0e93 8d3d
000001a0: b37b b23b 12c8 263e e2b8 073d cdbd 6cbd
000001b0: d9b6 07be 2651 603d 2790 9a3b 92e7 853d
000001c0: 675d dd3d 6361 5fbc 23d2 a6bd af74 103d
000001d0: bfd8 ddbb 7dc6 e3ba f26e 9dbd f3f5 fcbd
000001e0: f281 34bd c8be d33c 7b6e a43c 034f eabc
000001f0: 5a6f f03d 7649 4bbd 1286 333d 53d8 65bc
00000200: 39a5 9f3d 9796 b03c fecb 953d c2e3 c93c
00000210: 2b1c 80bb b778 f8bc da1f afbd 4c83 57bc
00000220: 80de bd3d b252 373c 7772 aabb 56e0 98bd
00000230: 18e8 c0bd 360a 023c 6ba3 eabd dda2 bc3b
00000240: ccd3 d73d 299c 473b d151 ec3d d18e f83d
00000250: 237b d3bd 4c4d 883d 52d7 493d d9e1 8e3c
00000260: 6767 dd3d 35cb 1d3d 7cce 8e3d 935b a2bd
00000270: 8814 f8bd 1ffd fa3d 76ec 01bc 960e 0fbe
00000280: c9ee c13d ef98 793d dd9e afbd 4344 4e3d
00000290: 4d95 b9bb 8785 933d 1063 cebd 51cf 94bc
000002a0: b65b c63d 9665 04be 13ff 23bd 44d8 8abd
000002b0: e23d d5bd 2dde 65bd 1959 cd3d fb23 5bbd
000002c0: 21d4 b1bd 7692 753d 7944 533d 8173 063d
000002d0: e1aa a73d f2f4 2dbd 4ff0 8b3d 98a5 183e
000002e0: f419 1dbd ff17 35bd f471 9a3d 0d38 ca3d
000002f0: 74fc 47bd 585e f03d 34f7 d9bd 1e0d 7b3c
00000300: 2bfa c73d 4955 03bd 75d2 d93d 98be 0f3e
00000310: b737 e9bc 4df4 b0bc 40ff 0e3e 533b 823d
00000320: 5a59 afbd e0cd ff3d 9222 91bd d8b5 0bbd
00000330: cf94 db3d 0db9 74bc 5c1e cd3d d2bd 00bd
00000340: 31f5 25bd 8886 d3bc 038f 35bd cd15 3e3d
00000350: b54c cabd 450c cbbd 43a5 973d e33b 073c
00000360: c77a 573d acc6 e13d 4295 e23d caed dfbc
00000370: 8ebe 5e3d 1fda d6bd b50e 213d 6cf8 aa3d
00000380: 9195 e83d 442b 80bd ee96 7bbc cf47 163b
00000390: 6a54 c9bd 6cb9 f5bd b9a8 66bd d17e 473d
000003a0: cb1c d7bc b707 60bd 1787 933d 55a3 45bd
000003b0: cf01 86bd 944c 8a3d 6094 323c ceff a7bd
000003c0: f15b cbbc 6ae3 823d 9665 013e c120 df3c
000003d0: 800e 87bb 26e4 693d 7861 e33d b1fd e0bd
000003e0: aaa2 193e 6df1 5cbc 201c ff3d c78b 39bd
000003f0: 182a 213d ac20 ef3d ebb6 433c 1194 c6bc

lstm.weight_ih_l1 f4 [256, 64]
-0.02626223 0.14914063 0.08464047 -0.100248896 -0.11564853 -0.0718052 -0.05964513 0.21468732
-0.028496332 -0.15370794 -0.09345344 0.06448699 0.069178075 -0.054103676 -0.05550976 0.13610467
-0.016507074 0.036958333 0.20623592 0.12765376 0.007737438 -0.13458838 -0.048470397 0.0070874123
-0.037500925 -0.006358024 0.03853136 -0.019562742 0.18243244 0.0070474786 -0.00029888007 0.05705135
0.03382191 0.061950456 0.07275398 -0.00806145 0.007730505 -0.19608426 0.04223615 -0.014305074
-0.1138587 -0.05965897 -0.08594096 -0.108815156 0.0029071297 -0.107835695 -0.12372481 -0.030829996
-0.123028696 -0.10343355 -0.0941566 0.10413922 -0.11158043 -0.044810273 -0.03112356 -0.14364482
-0.013054597 0.112389416 -0.0018298152 -0.07163608 0.14552939 0.08793648 0.04327079 0.12300476
0.13387235 -0.12677598 -0.08210139 0.11204149 -0.034472674 -0.009535955 -0.030203678 -0.11993785
0.032501366 0.12314481 -0.10445663 -0.018154796 -0.016833363 -0.042185523 -0.01833992 -0.005513285
-0.0140195135 -0.033007357 -0.0434528 -0.14853798 0.12722318 0.039680302 -0.072513886 0.06674128
-0.06287491 -0.028674508 -0.049547587 -0.031103801 0.0207177 -0.007337726 0.09120615 0.04240669
0.03681504 -0.0740583 -0.09375379 -0.11729401 0.014129902 -0.022825893 0.058752414 -0.09355044
-0.05889342 0.02822745 -0.09997609 -0.0020254073 0.009828691 -0.10979026 0.08171111 0.11793322
-0.11998087 0.07582538 -0.0010215187 0.09863601 0.14589307 -0.098302744 0.01373423 -0.09260031
-0.08655447 -0.049233083 0.0935913 0.031765647 0.0781864 -0.13661638 -0.108134896 -0.10586911
-0.07241771 -0.1073611 -0.0062743025 0.035587512 -0.0019180615 -0.063454404 0.07060573 0.107500196
0.11370809 0.0011829315 -0.01707114 0.11567353 0.05176157 -0.024818473 0.10460246 0.12398421
-0.046549052 0.10168806 -0.0819656 -0.06465144 0.00637954 -0.046929434 0.06800409 0.08317866
-0.08921679 0.08233144 -0.07034856 -0.051103182 0.044797815 0.03235107 -0.09761872 0.082562186
-0.09035329 -0.014160219 -0.14706597 0.09683133 -0.040722508 -0.10299013 -0.018915163 -0.06153929
-0.17103978 -0.034652203 -0.11728971 0.092953645 0.03205295 0.10605574 0.009276003 -0.11805682
-0.08908004 -0.06118778 -0.06280588 0.14685103 0.07524458 0.06230321 0.013660383 0.08072493
0.029789733 -0.10078595 0.1087785 -0.04077655 0.10229429 -0.030366868 0.13779518 0.03266766
0.023549093 -0.07936021 0.14056857 -0.12700196 0.11547198 -0.05675041 0.07308403 0.008683828
-0.10408509 0.099928334 -0.01964766 0.059894722 -0.0008973206 0.11730623 -0.07191227 0.053417012
-0.028478825 -0.16210973 -0.017690958 -0.01905213 0.106613666 0.09540095 -0.0766869 0.010953803
-0.02012879 -0.06517073 0.08862298 0.12760654 0.07601522 -0.046780076 -0.038480792 0.08570674
0.13973281 -0.014535015 0.107951716 -0.148174 -0.03961252 -0.11525808 -0.069162786 -0.063618466
0.14453763 0.023326518 0.08283267 -0.10937375 -0.048588593 0.07654441 0.109307036 -0.037365027
-0.03256449 -0.073434226 -0.016094603 0.0724562 -0.0927763 -0.07644027 -0.11415355 0.078154266
-0.020528857 0.10980454 -0.09803687 -0.04605588 -0.15503713 -0.021864144 0.116539545 0.0847198
00000000: e323 d7bc 52b8 183e fc57 ad3d 4b4f cdbd
00000010: 23d9 ecbd 9b0e 93bd 744e 74bd fed6 5b3e
00000020: 2471 e9bc 9d65 1dbe 8464 bfbd c111 843d
00000030: 3cad 8d3d d19b 5dbd 345e 63bd 065f 0b3e
00000040: d839 87bc 9f61 173d 822f 533e abb7 023e
00000050: 568a fd3b 89d1 09be e588 46bd 863d e83b
00000060: 929a 19bd f956 d0bb 0fd3 1d3d 0b42 a0bc
00000070: 92cf 3a3e 89ee e63b 01b3 9cb9 adae 693d
00000080: d888 0a3d c3bf 7d3d 0a00 953d 2c14 04bc
00000090: 2d50 fd3b 50ca 48be d0ff 2c3d d45f 6abc
000000a0: c02e e9bd f75c 74bd d001 b0bd 7bda debd
000000b0: 8b85 3e3b f6d8 dcbd 6f63 fdbd 308f fcbc
000000c0: 78f6 fbbd f8d4 d3bd 2dd5 c0bd f246 d53d
000000d0: 4884 e4bd fa8a 37bd d6f6 febc a117 13be
000000e0: f3e2 55bc 6c2c e63d 69d6 efba f0b5 92bd
000000f0: a805 153e 0b18 b43d b63c 313d ebe9 fb3d
00000100: d515 093e 90d1 01be c624 a8bd 0276 e53d
00000110: 3833 0dbd b23c 1cbc b46d f7bc faa1 f5bd
00000120: 2720 053d 5933 fc3d 5ced d5bd 5eb9 94bc
00000130: 1fe6 89bc baca 2cbd 9a3d 96bc c9a8 b4bb
00000140: 1ab2 65bc b932 07bd 90fb 31bd 571a 18be
00000150: cb46 023e d087 223d 2982 94bd a7af 883d
00000160: 90c4 80bd cde6 eabc 69f2 4abd 66cd febc
00000170: 2ab8 a93c 4f71 f0bb 4aca ba3d a3b2 2d3d
00000180: 5ecb 163d e1ab 97bd fd01 c0bd d837 f0bd
00000190: 1b81 673c 5efd babc 5fa6 703d 6097 bfbd
000001a0: 3a3a 71bd 413d e73c 44c0 ccbd b2bc 04bb
000001b0: 8508 213c b7d9 e0bd 2858 a73d f986 f13d
000001c0: 88b8 f5bd 564a 9b3d 7be4 85ba ad01 ca3d
000001d0: fe64 153e f352 c9bd 8905 613c 3ba5 bdbd
000001e0: 7843 b1bd a1a8 49bd ccac bf3d b21c 023d
000001f0: 3120 a03d 2ae5 0bbe d475 ddbd e7d1 d8bd
00000200: bd4f 94bd 23e0 dbbd aa98 cdbb 36c4 113d
00000210: 7767 fbba 62f4 81bd bd99 903d 1029 dc3d
00000220: c9df e83d 980c 9b3a c7d8 8bbc 3ee6 ec3d
00000230: f103 543d 1c50 cbbc d139 d63d 6feb fd3d
00000240: 38aa 3ebd d441 d03d 95dd a7bd f967 84bd
00000250: 760b d13b 1439 40bd ba45 8b3d 9359 aa3d
00000260: 4bb7 b6bd 639d a83d e812 90bd 9251 51bd
00000270: ea7d 373d 8e82 043d 53ec c7bd 5d16 a93d
00000280: 250b b9bd 4300 68bc 7698 16be 814f c63d
00000290: a5cc 26bd 7dec d2bd f9f3 9abc 9f10 7cbd
000002a0: 0d25 2fbe 78ef 0dbd 9635 f0bd 7b5e be3d
000002b0: f449 033d c033 d93d 60fa 173c c6c7 f1bd
000002c0: 996f b6bd 0aa0 7abd 5fa0 80bd 1e60 163e
000002d0: d519 9a3d a731 7f3d cdcf 5f3c 1d53 a53d
000002e0: 9909 f43c dd68 cebd 43c7 de3d 5005 27bd
000002f0: ab7f d13d f0c3 f8bc 2e1a 0d3e 86ce 053d
00000300: 07ea c03c 9b87 a2bd 35f1 0f3e cd0c 02be
00000310: 937c ec3d 1e73 68bd 14ad 953d 9d46 0e3c
00000320: 902a d5bd 3aa7 cc3d 21f4 a0bc 2b54 753d
00000330: 2b3a 6bba 403e f03d bd46 93bd cccb 5a3d
00000340: 6d4c e9bc 1800 26be a1ec 90bc 3613 9cbc
00000350: 4458 da3d 9361 c33d 050e 9dbd 9477 333c
00000360: 22e5 a4bc 3b78 85bd f77f b53d 4aab 023e
00000370: dead 9b3d 779c 3fbd 099e 1dbd 0487 af3d
00000380: 1e16 0f3e 4624 6ebc ca15 dd3d edba 17be
00000390: bd40 22bd 6e0c ecbd 38a5 8dbd 664a 82bd
000003a0: ac01 143e 4117 bf3c 2da4 a93d 58ff dfbd
000003b0: d504 47bd 51c3 9c3d 5edc df3d 120c 19bd
000003c0: 5862 05bd af64 96bd d4d8 83bc eb63 943d
000003d0: 8001 bebd b78c 9cbd 56c9 e9bd 580f a03d
000003e0: 222c a8bc 34e1 e03d 8ec7 c8bd 17a5 3cbd
000003f0: 0ec2 1ebe 6f1c b3bc 49ac ee3d 9381 ad3d

lstm.weight_hh_l1 f4 [256, 64]
-0.08312099 -0.06933927 0.08533855 -0.21254438 0.034440354 0.007807523 -0.038746987 0.019740853
-0.04422855 -0.04956653 0.10187187 -0.07071881 -0.027633494 -0.062103525 0.05987075 0.1691096
0.030852914 -0.12368793 -0.004022294 -0.22451656 0.08527892 0.07357993 -0.11833425 0.12930442
0.0009854294 -0.14464316 -0.017183684 0.11133249 0.1351823 -0.072924174 0.06481974 -0.06690877
-0.042041156 0.15158711 -0.06466883 -0.042533517 -0.06372102 0.048563328 0.047857624 0.04934656
-0.0055459593 -0.087919764 0.107921995 -0.01770198 0.101826295 0.08837966 -0.17569354 -0.018431602
0.050357874 -0.0059934063 0.15652326 -0.07509703 0.04248862 0.008220523 0.08696939 0.047767438
0.0011997327 0.07765316 0.14238422 0.096292265 0.050344367 0.041652936 0.021598117 0.014261624
0.0072603743 0.095023274 0.10299419 -0.08501859 0.09836152 -0.0815494 0.023836754 0.051092073
0.0014424705 -0.14723064 0.06178654 0.010746453 0.11505857 -0.01566889 -0.036473587 -0.029419791
0.035477452 0.08221722 -0.097146735 0.15812233 -0.011342872 -0.0034126083 0.045276716 0.08182434
-0.09584054 0.026820736 0.091450155 0.085163616 0.02767846 0.11447033 -0.050955568 0.043855958
-0.009783722 -0.038868055 0.09748355 -0.08931692 0.066700876 0.042850576 0.02048897 -0.12425613
0.016486708 -0.10144717 -0.043790486 0.15826075 -0.06392846 0.040855527 0.08645561 0.071556605
0.02936185 0.005917295 0.059495114 0.07831966 -0.053628817 0.040547468 0.03921253 0.12278579
-0.004778318 -0.05404363 -0.08657901 -0.11245081 0.08988795 0.024669312 -0.10784653 -0.047652088
0.015316358 -0.0021970985 0.085329406 0.07936383 -0.021853812 -0.06699904 0.032721013 0.115812786
0.060468964 -0.083674714 -0.049351905 0.019081958 0.030007135 0.004880912 -0.080162786 -0.010845083
0.0005698046 0.101597905 -0.054078653 -0.0306071 0.029567787 -0.13505733 -0.09462258 0.07252033
0.1252092 0.101275325 0.02559862 -0.11462755 -0.0008277992 0.08293656 0.067640625 0.10680085
0.015735185 0.06973874 -0.04418784 -0.091797516 0.08307328 -0.10832276 -0.010613875 -0.1722667
0.090869226 0.060116615 -0.0246786 0.13022391 0.09298484 -0.060223386 0.1147035 0.038094226
-0.055636127 0.12235053 -0.030542638 0.10018069 0.04714615 -0.027144708 0.018167991 0.07307907
-0.048353117 -0.063324496 -0.023914725 0.08629674 -0.06297473 0.018155448 0.00091090193 0.16246127
0.11443684 0.10737725 -0.050198715 0.05834657 -0.0071082986 0.028283495 0.13600695 0.0451265
-0.05076113 0.08800612 -0.060039658 -0.06798412 0.014340824 -0.019527365 0.13260798 0.08109944
0.048194904 0.019930106 0.058838613 0.015237234 0.0012717101 0.09144919 0.06678535 -0.13010073
-0.06938972 0.12573051 -0.016582243 0.12045306 0.081577435 0.12687893 0.08494309 -0.06559776
0.10764875 -0.14236026 0.0679827 -0.008108337 0.14930779 -0.0018484247 -0.052164532 -0.105573684
0.0938241 -0.03864149 -0.057917617 -0.01550954 0.08485978 -0.084155075 0.12588482 -0.12738578
-0.095572375 -0.10647144 0.038580365 0.12105559 0.046318077 0.08710865 -0.08344565 0.11290013
0.023458121 -0.051166 -0.122691706 -0.005727683 -0.08030845 0.022222102 0.078811616 -0.05257665
00000000: 563b aabd bf01 8ebd fac5 ae3d 3ca5 59be
00000010: 5411 0d3d 40d6 ff3b 29b5 1ebd 92b7 a13c
00000020: ff28 35bd 4606 4bbd 33a2 d03d 06d5 90bd
00000030: a35f e2bc 4460 7ebd 083b 753d 112b 2d3e
00000040: 40bf fc3c 1950 fdbd 73cd 83bb abe7 65be
00000050: b7a6 ae3d 13b1 963d 3a59 f2bd 6168 043e
00000060: 8629 813a 561d 14be ccc4 8cbc 4a02 e43d
00000070: 3b6d 0a3e 4559 95bd 36c0 843d 7707 89bd
00000080: 5933 2cbd a739 1b3e 1771 84bd a037 2ebd
00000090: 2b80 82bd 57ea 463d 5b06 443d 9e1f 4a3d
000000a0: e1ba b5bb 470f b4bd 3506 dd3d be03 91bc
000000b0: 4e8a d03d 6500 b53d 02e9 33be dffd 96bc
000000c0: 0f44 4e3d 5664 c4bb a247 203e 79cc 99bd
000000d0: 8c08 2e3d 5faf 063c 021d b23d caa7 433d
000000e0: 5940 9d3a 9f08 9f3d 2bcd 113e e134 c53d
000000f0: e535 4e3d 459c 2a3d 89ee b03c 96a9 693c
00000100: 6fe8 ed3b 909b c23d 9eee d23d 3a1e aebd
00000110: c471 c93d 5f03 a7bd 4c45 c33c ec45 513d
00000120: 4711 bd3a a1c3 16be e213 7d3d e411 303c
00000130: d4a3 eb3d 0b5c 80bc 5465 15bd c601 f1bc
00000140: ce50 113d 8061 a83d def4 c6bd d2ea 213e
00000150: 74d7 39bc 11a6 5fbb 1474 393d 8593 a73d
00000160: 0c48 c4bd 29b7 db3c 384a bb3d 436a ae3d
00000170: f0bd e23c 6c6f ea3d c9b6 50bd 4ea2 333d
00000180: e84b 20bc 1c34 1fbd 75a5 c73d caeb b6bd
00000190: 789a 883d 1684 2f3d 7cd8 a73c ff79 febd
000001a0: 220f 873c 89c3 cfbd a75d 33bd 1b0f 223e
000001b0: edec 82bd 2058 273d a40f b13d 458c 923d
000001c0: 4388 f03c dee5 c13b 26b1 733d 0f66 a03d
000001d0: e4a9 5bbd 1a15 263d 519d 203d 1e77 fb3d
000001e0: 7093 9cbb da5c 5dbd 5650 b1bd 9c4c e6bd
000001f0: 2c17 b83d 4c17 ca3c a4de dcbd d62e 43bd
00000200: 76f1 7a3c 32fd 0fbb 2fc1 ae3d 8189 a23d
00000210: c406 b3bc cb36 89bd 7806 063d 412f ed3d
00000220: 4eae 773d a65d abbd 3925 4abd c451 9c3c
00000230: 86d1 f53c 0ff0 9f3b 632c a4bd 93af 31bc
00000240: f05e 153a 9012 d03d 9481 5dbd bebb fabc
00000250: 2538 f23c 784c 0abe 7cc9 c1bd 8a85 943d
00000260: d736 003e 7069 cf3d 32b4 d13c d9c1 eabd
00000270: aa00 59ba a5da a93d 2b87 8a3d 67ba da3d
00000280: 13e7 803c 2fd3 8e3d 4ffe 34bd 5600 bcbd
00000290: 5322 aa3d 53d8 ddbd d2e5 2dbc af66 30be
000002a0: a519 ba3d d73c 763d c62a cabc 6b59 053e
000002b0: d66e be3d ccac 76bd abe9 ea3d b108 1c3d
000002c0: b5e2 63bd ea92 fa3d 8e34 fabc 892b cd3d
000002d0: 521c 413d 945e debc 0ad5 943c 7baa 953d
000002e0: eb0d 46bd 46b0 81bd d0e8 c3bc 58bc b03d
000002f0: e5f8 80bd bcba 943c 98c9 6e3a 3f5c 263e
00000300: dd5d ea3d 9be8 db3d 2b9d 4dbd d0fc 6e3d
00000310: bbec e8bb cab2 e73c 6845 0b3e 91d6 383d
00000320: e7ea 4fbd 8d3c b43d 25ec 75bd 423b 8bbd
00000330: c7f5 6a3c daf7 9fbc 63ca 073e 7717 a63d
00000340: 0568 453d 7644 a33c c200 713d 97a5 793c
00000350: 83af a63a b749 bb3d c2c6 883d 2039 05be
00000360: 331c 8ebd 80bf 003e 7cd7 87bc 18b0 f63d
00000370: 1212 a73d 8dec 013e a5f6 ad3d 1e58 86bd
00000380: f376 dc3d e3c6 11be 843a 8b3d d5d8 04bc
00000390: 24e4 183e d746 f2ba 7aaa 55bd 0437 d8bd
000003a0: da26 c03d 8a46 1ebd 063b 6dbd ba1b 7ebc
000003b0: f7ca ad3d 7f59 acbd f3e7 003e 6b71 02be
000003c0: 73bb c3bd b30d dabd 7206 1e3d feeb f73d
000003d0: 06b8 3d3d 0566 b23d 8ee5 aabd 2f38 e73d
000003e0: 3f2b c03c 7193 51bd ca45 fbbd 4aaf bbbb
000003f0: c278 a4bd 200b b63c fc67 a13d 9d5a 57bd

lstm.bias_ih_l1 f4 [256]
-0.09338785 0.034370374 0.0054503977 -0.067524776 0.22048996 -0.07978864 0.048357803 0.052637048
0.036526788 -0.09393738 0.122912884 0.083116 0.110515684 -0.07616599 -0.012803381 -0.13503595
0.09370599 0.10867363 0.13109453 0.059852783 -0.002626444 0.099298276 -0.073945135 -0.025549607
0.3025662 0.05325932 0.09462207 -0.034655895 -0.08941532 0.033466365 -0.09372964 -0.026651459
-0.10412738 -0.094935946 0.06384993 -0.107210815 -0.07351735 -0.06940119 0.037970454 0.026322914
0.13561207 -0.06841361 -0.028757747 -0.01728447 0.013485901 0.13735296 -0.040900167 0.11177005
-0.09424279 0.085275486 -0.054050837 0.051400065 0.024051897 0.040283307 0.16182332 -0.07233044
0.06757307 -0.005660262 0.0869274 -0.13652779 -0.01757278 0.08869775 -0.074696906 0.061402556
0.059346102 0.050639562 -0.09793556 0.0065545077 -0.02496574 -0.1093186 0.058257174 -0.062071208
-0.043381635 -0.009044065 -0.11981863 0.0120303985 -0.061323486 0.0313918 -0.113021 0.07633733
-0.050085183 0.09049979 0.032610152 -0.07376743 -0.015627174 -0.02211336 -0.040848795 0.078045756
-0.024031788 -0.049199432 -0.004741216 0.09397842 0.034133837 -0.043360684 0.010513464 -0.03798293
-0.040916633 0.08491657 -0.075213574 0.077819996 -0.09112729 -0.12543114 -0.053588618 -0.09889696
-0.08722707 -0.020265538 -0.044924457 -0.093179725 -0.0397628 -0.018886926 0.055987496 0.008946551
-0.09959403 -0.10752372 0.008340449 0.10100352 -0.031631995 -0.004923076 0.00986209 0.076705374
0.04539389 -0.03168444 0.014682443 -0.07841811 -0.12566528 0.08857271 -0.09039629 -0.11320803
0.007715348 -0.11548447 0.035350528 0.08540388 0.08952721 0.08865206 -0.057922162 -0.032994684
0.09852845 0.051882666 -0.06325621 0.07909409 0.03448965 0.07064045 0.0379637 -0.012143129
-0.09611844 0.06830163 -0.0068660425 0.0073385118 0.09565491 -0.005840123 0.035235874 0.05347406
-0.057280146 0.009648295 0.02417848 -0.05793528 0.026740905 -0.010326794 0.080018826 0.07597602
0.0060581667 0.05696063 0.111255124 -0.04995198 -0.12110523 0.058868356 0.022736773 0.015520632
0.031674527 0.06821039 0.02570205 -0.06031393 0.0411132 -0.084610656 -0.10680462 0.08270104
-0.07023702 0.018919604 0.07621166 -0.019509977 0.08293584 0.07275211 -0.13067494 0.09066767
-0.009515581 0.1211037 -0.047193643 0.04014707 0.07332705 -0.10030573 -0.09649966 0.017566796
-0.11410392 -0.041487686 0.07448521 0.036929995 -0.013722953 0.056238838 0.11241615 -0.023094675
0.047064893 -0.13433297 -0.060862627 -0.05954998 -0.025619749 0.09874281 -0.08487755 0.014461289
0.012849027 -0.05252649 0.069987535 0.089614265 -0.067857526 0.11445271 -0.006581914 0.110119395
0.19319108 -0.09145777 0.007680667 -0.116284244 -0.08010677 0.12413543 -0.084533975 0.07455072
-0.10977125 -0.08580653 -0.01072791 0.11408359 -0.08163959 0.09856573 0.07535409 0.017490817
0.056120466 -0.10642813 -0.052226588 -0.1135114 -0.12567508 -0.083935946 -0.107333906 -0.0113746915
0.11242617 0.006394993 -0.07218258 0.08406223 -0.08824505 0.0031214803 -0.079877056 0.0074264496
0.0523667 0.12132746 0.07632063 0.041001618 -0.07322595 0.04862643 -0.091695234 0.07004082
00000000: 2142 bfbd f3c7 0c3d 4099 b23b 6e4a 8abd
00000010: 1fc8 613e 3a68 a3bd d512 463d f299 573d
00000020: 1d9d 153d 3e62 c0bd c0b9 fb3d b938 aa3d
00000030: 0c56 e23d eafc 9bbd 46c5 51bc dd46 0abe
00000040: ede8 bf3d 4890 de3d a53d 063e 3128 753d
00000050: 6b20 2cbb e55c cb3d 8c70 97bd 694d d1bc
00000060: f5e9 9a3e 7226 5a3d 37c9 c13d 57f3 0dbd
00000070: 611f b7bd 0714 093d 53f5 bfbd 2954 dabc
00000080: bc40 d5bd c76d c2bd c1c3 823d 5891 dbbd
00000090: 4490 96bd 3622 8ebd e886 1b3d 27a3 d73c
000000a0: e4dd 0a3e 6f1c 8cbd 5e95 ebbc 2998 8dbc
000000b0: f8f3 5c3c 41a6 0c3e ef86 27bd b2e7 e43d
000000c0: 5d02 c1bd eaa4 ae3d 6964 5dbd e088 523d
000000d0: 7c08 c53c 1c00 253d 03b5 253e fb21 94bd
000000e0: c063 8a3d b879 b9bb fe06 b23d f1cd 0bbe
000000f0: caf4 8fbc 2aa7 b53d b1fa 98bd 3f81 7b3d
00000100: e614 733d 6e6b 4f3d 7092 c8bd 32c7 d63b
00000110: f484 ccbc 6ee2 dfbd 139f 6e3d 613e 7ebd
00000120: f1b0 31bd 8f2d 14bc 7863 f5bd 261b 453c
00000130: 562e 7bbd b094 003d 8e77 e7bd bf56 9c3d
00000140: 1f26 4dbd f457 b93d 3992 053d 6113 97bd
00000150: 8f04 80bc 1427 b5bc 1151 27bd 74d6 9f3d
00000160: 50de c4bc 5885 49bd 345c 9bbb c277 c03d
00000170: eccf 0b3d f99a 31bd aa40 2c3c fd93 1bbd
00000180: 3398 27bd bde8 ad3d 9309 9abd 1760 9f3d
00000190: f2a0 babd 0571 00be bd7f 5bbd 7d8a cabd
000001a0: 1ba4 b2bd ea03 a6bc b502 38bd 03d5 bebd
000001b0: 51de 22bd c1b8 9abc 2553 653d 8e94 123c
000001c0: f4f7 cbbd 6535 dcbd 61a6 083c efda ce3d
000001d0: 8d90 01bd c151 a1bb 9b94 213c b517 9d3d
000001e0: f2ee 393d 8bc7 01bd a18e 703c ad99 a0bd
000001f0: 66ae 00be 9c65 b53d b121 b9bd 9dd9 e7bd
00000200: 08d1 fc3b 1f83 ecbd b7cb 103d 3be8 ae3d
00000210: 0b5a b73d 368f b53d ca3f 6dbd 6f25 07bd
00000220: 49c9 c93d eb82 543d 798c 81bd 15fc a13d
00000230: 0545 0d3d f1ab 903d d37f 1b3d f9f3 46bc
00000240: bfd9 c4bd bae1 8b3d 8afc e0bb e677 f03b
00000250: b9e6 c33d 815e bfbb 7e53 103d 9e07 5b3d
00000260: 969e 6abd e213 1e3c f311 c63c 8b4d 6dbd
00000270: be0f db3c b731 29bc e9e0 a33d 5199 9b3d
00000280: 9683 c63b 8d4f 693d bad9 e33d 739a 4cbd
00000290: 0506 f8bd f21f 713d 7842 ba3c 404a 7e3c
000002a0: 26bd 013d e4b1 8b3d 1b8d d23c bd0b 77bd
000002b0: 5166 283d 5a48 adbd 61bc dabd 2a5f a93d
000002c0: 6dd8 8fbd 49fd 9a3c dc14 9c3d 63d3 9fbc
000002d0: 44da a93d 0fff 943d a7cf 05be f9af b93d
000002e0: 3de7 1bbc 3705 f83d 1f4e 41bd 4171 243d
000002f0: 7e2c 963d 176d cdbd 9da1 c5bd 3ee8 8f3c
00000300: 51af e9bd feee 29bd b48b 983d e843 173d
00000310: 3dd6 60bc b25a 663d 703a e63d 0b31 bdbc
00000320: 1ec7 403d 958e 09be 174b 79bd aeea 73bd
00000330: 82e0 d1bc ac39 ca3d 48d4 adbd 0bef 6c3c
00000340: ba84 523c 0426 57bd a055 8f3d af87 b73d
00000350: e3f8 8abd 2f66 ea3d 19ad d7bb 4786 e13d
00000360: e2d3 453e 364e bbbd 1bae fb3b 6f26 eebd
00000370: 050f a4bd b73a fe3d 2620 adbd 0cae 983d
00000380: c0cf e0bd 56bb afbd 1ec4 2fbc a8a4 e93d
00000390: a832 a7bd d4dc c93d 3f53 9a3d e748 8f3c
000003a0: 93de 653d fef6 d9bd 8ceb 55bd aa78 e8bd
000003b0: f8b0 00be 9ce6 abbd e1d1 dbbd ea5c 3abc
000003c0: b13f e63d 178d d13b 76d4 93bd d228 ac3d
000003d0: d2b9 b4bd c091 4c3b 9596 a3bd 9359 f33b
000003e0: 777e 563d 887a f83d fe4d 9c3d 50f1 273d
000003f0: 7df7 95bd 822c 473d b6ca bbbd 9071 8f3d
